diskriminator_3cls_170ep_param1052.pt (torch_old, 94929 bytes, 38 tensors)

fc.weight f4 [1, 16]
00000000: 3f2c 94be a122 b2be f792 363f cf7d 103f
00000010: 455a a6be 81dc 3b3f 87b9 e2bd 6279 633e
00000020: b2ce f73e 1ce0 f5be 4c2b 02bf b64f 2b3e
00000030: 1624 113f 4a68 013f bd2b 8cbe 9c19 823f
-0.28940007 -0.34792045 0.71318 0.5644197 -0.32490745 0.7338334 -0.11070543 0.22214273
0.48399884 -0.48022544 -0.50847316 0.16729626 0.5669569 0.5054976 -0.2737712 1.0164065

fc_classif.weight f4 [3, 16]
00000000: 666c df3e f01a 1c3e 97e0 313e bd91 7d3c
00000010: cf65 063f 06ad 073f 7977 e03d 56bb 4cbf
00000020: f0bc 92be 30de d03e ea8c 4cbf ab9a 3b3d
00000030: e271 2fbf f89b 3bbf d828 f2bd 219d 4f3e
00000040: 2155 bcbe a6ef 0cbf b605 0f3f c6b7 063f
00000050: bc79 3cbf 0357 373e 5eae 47bf 9bc3 be3e
00000060: 80be a2be c41d cfbe ce0a 8a3e 7be0 39bf
00000070: a212 04be 3679 813d 8e70 1d3f aa13 a93e
00000080: cd9e db3d 9caa babe 16e8 07bf 5d11 f4be
00000090: a19c 773e 9a43 10bf 8068 bdbd 1341 d33e
000000a0: 30b3 ea3e 845b 1a3e 38ba debb 4689 cf3e
000000b0: a7cf 0f3f fa95 a63e 07bf ddbe 124a 1abf
0.4363739 0.15244651 0.1737083 0.015476641 0.524991 0.5299839 0.109602876 -0.7997335
-0.28659773 0.40794516 -0.7990252 0.0458018 -0.68533146 -0.73284864 -0.118241966 0.20274784
-0.36783698 -0.55053174 0.5586809 0.52624166 -0.7362325 0.17904286 -0.7800044 0.3725861
-0.31785965 -0.40452397 0.26961368 -0.72608155 -0.12897733 0.06321947 0.6149987 0.33022815
0.10723648 -0.3645829 -0.5308851 -0.47669497 0.24180843 -0.5635315 -0.092484474 0.41260585
0.45839834 0.15073973 -0.0067971013 0.4053442 0.5617623 0.32536298 -0.43309805 -0.6026927

sequence.0.weight f4 [8, 1, 2, 2]
00000000: 09f1 95be 1c56 323e 5372 1ebe 1a51 d33e
00000010: c8d9 b0be 17f2 d83e cb39 a4be 874a 393e
00000020: d326 c03d d827 273e daec 98be d709 5fbd
00000030: 3fa4 863d 01cb dd3e 5029 dabe 44ef 833e
00000040: 36cd cb3e ef5c 913e 277f c5be fac1 043f
00000050: 2ce4 b8be b00f 50be 758a 593e d1ce bf3d
00000060: 838b f9be a61c 113e 5cf8 293c 5cb6 a9be
00000070: bb3a 77be b533 7f3d 27a3 e23e 750d 803e
-0.29285458 0.1741566 -0.15473299 0.41272813 -0.34541154 0.423722 -0.32075343 0.18094836
0.09382405 0.16323793 -0.29868203 -0.054452743 0.06574296 0.43318942 -0.42609644 0.25768483
0.39805 0.28391215 -0.38573572 0.51858485 -0.3611158 -0.20318484 0.21244223 0.09365619
-0.48739251 0.14171085 0.010374155 -0.33146942 -0.24143498 0.06230517 0.442651 0.25010267

sequence.0.bias f4 [8]
00000000: 89e5 73be a013 6bbe 8828 eb3e 19c9 863e
00000010: f283 63bd 51f5 20bd 7a39 ef3d 6226 b13d
-0.2381803 -0.22956705 0.4592936 0.263253 -0.055545755 -0.039296452 0.11680885 0.08649899

sequence.1.weight f4 [8]
00000000: e213 833f c0fb 733f 9d77 823f 34e7 833f
00000010: 95f1 813f 8115 833f 6ab3 7b3f e7f6 7f3f
1.0240443 0.95306015 1.0192753 1.0304933 1.015185 1.0240937 0.9832064 0.9998612

sequence.1.bias f4 [8]
00000000: d6c9 233d 4590 023b 785f 453d 49c6 2b3c
00000010: 77d4 8b3c 61ac de3c b076 083d 02de 4ebc
0.039987408 0.0019922417 0.04818675 0.010484287 0.017069085 0.027181806 0.033316314 -0.012626173

sequence.1.running_mean f4 [8]
00000000: 830b 65be 99b3 51be 9337 ef3e f85b 8e3e
00000010: 8e6e 61bd a22e 17bd 28db 093e 4a1c a63d
-0.22367673 -0.20478667 0.46722087 0.27804542 -0.055037074 -0.036909707 0.13462508 0.081108645

sequence.1.running_var f4 [8]
00000000: f792 163d dd0d d53c 4b5d 713c 2b7e fc3d
00000010: 9f63 0a3f b1aa 913d 10fe a73e efa3 4f3e
0.03676125 0.026007587 0.014731715 0.12328752 0.5405826 0.07112635 0.32811022 0.2027738

sequence.3.weight f4 [16, 8, 2, 2]
00000000: 9399 d6bd 59ca eebd e1a6 f63c ada0 b63d
00000010: 69e2 293e 8a82 a63d 6840 ea3d 640d aebd
00000020: 1d74 e5bd 467f 3c3d d182 373e 26cf 473e
00000030: b5d5 303d 8da1 013b 358b 933d feee bd3d
00000040: fa97 da3d d1aa d33c 09ab 0abe bc5e 1abd
00000050: a239 493b 40a5 8a3d 1453 3b3e cbb2 c93d
00000060: e4a7 a7bd f49c 0b3e 018a 5e3e 39cc cc3d
00000070: 4a73 613d 99b0 99bc 9f7a f1bd 8fbf 07be
00000080: 6c33 953c 1d56 30be bedc 9ebd 6b0c 103d
00000090: 51ad 023e 887d a03a 5b31 403c 0ffc 413e
000000a0: ba28 5bbd 4d0f bdbd d3a4 28be d958 0bbe
000000b0: 7a47 4bbd be57 c63d 005c c3bd 4042 34be
000000c0: 8d0c 4b3e b95e 953c a55f dabc 6cc9 c0bc
000000d0: 266d 44bc 9613 25be da82 9e3d 5a5f 27be
000000e0: b347 7c3d 0321 15be 4a6a 593c 2d08 0bbe
000000f0: 6224 46bd dbfd dcbd 5de6 d33d 8971 143e
00000100: f386 1ebe 6872 5fbe 1940 0abe 4de5 15be
00000110: ae9f 7e3d a33e b5bd c0fe d23d d665 7ebd
00000120: d5d1 c7bd a1c4 e73c 9bf0 02be b621 e43d
00000130: 28a8 cabd 8aa9 88bd 4d7f 4b3e 3278 b7bd
00000140: 899f c5bd abf7 83bd e170 633e 7f92 f9bd
00000150: 22f1 edbd 2d46 963d 3dfc 2bbd 5c21 af3d
00000160: 3aaa 33bd c719 e83d cea8 363d 2603 8a3d
00000170: 3b3a 603c 9072 f33d c8ed 6b3d b97c d63c
00000180: 7e37 58be 0737 53bd fe79 053e bc56 5dbe
00000190: b59d 35be d6e8 743d 88f9 42bd 98c8 ae3d
000001a0: 31a9 80bd 56f0 0d3e 46c7 003d 68dc 953d
000001b0: 7350 cebd 2fc1 ebbd ce13 0bbe 8bdd 1a3e
000001c0: 9181 873c 0ac4 8bbd 628c 08be 7208 733d
000001d0: 2829 40be 7312 9abd a1b8 a23d 6407 a53d
000001e0: 3ef6 13be 08f3 e0bd f1e5 01be d62d c03d
000001f0: 49a2 7cbd ed94 9f3c aa4b c73d 06a6 94bd
00000200: 3860 323d a57c 19be 663f 39be 53d0 393e
00000210: 8b99 1dbe 8dcf 843d 1a3d 943d 4fc4 4b3d
00000220: 8150 b4bb df14 a9bd 135b 9abd 6d17 3cbe
00000230: d81f 683d 6941 8dbb b2fc 09be b0bb 043e
00000240: 8d2e afbc 9dd8 13be 4617 d53d 4fd2 cbbc
00000250: c1ea acbd e0b7 88bd e3c1 563d f9a3 45be
00000260: d300 f33d fda2 fd3d 1824 0e3e 4d11 a03d
00000270: 5139 8dbc f1bb 6a3e e032 24be 211d d1bd
00000280: 721b dabd 1401 55bd ccbc 8b3b ade7 863d
00000290: cdea c83a b9ab a93b 27d5 dfbc 70b8 01bd
000002a0: 8265 2a3e dd30 30bd 6f3c a4bd e1dd 20be
000002b0: fb25 12be 246a 52be e032 2d3e 0e0d 24be
000002c0: 68b6 463d 734f bbbd 3b70 d5bd 3b7c fd3c
000002d0: da7a 903c 84bb 063c 9228 68bd 015c 953d
000002e0: 1339 c23c 836a 723d 992c d33c d53c 463d
000002f0: 33d7 2b3e 005a a53d 5f3b 553e 13cf 2e3e
00000300: 6ff1 643e 5bd4 fdbb e4c6 35be 0a7b cd3d
00000310: 237f 10be 8af9 ca3d e6c2 2ebe c740 18be
00000320: cd14 0e3d 77b5 45bd 67df cf3d c4a3 c6bd
00000330: 297a bcbd 9737 2bbd 681d 91bd 5263 d83d
00000340: 9c3d 13bd 952f 87bd e103 d4bb c428 06be
00000350: 297d 7dbd 410a 2a3c 062e 47be 4704 143e
00000360: fd48 643d 0f7a f03d 16fb 7ebd c0ef 1abe
00000370: 36e5 473e b222 833d eede 1e3e 47c0 94bd
00000380: 9696 4cbd 0ed5 39bd 964a d7bd 200d 413c
00000390: f2e7 bd3d 0253 aebd 3da0 b53c e2f2 0abe
000003a0: 85c7 3a3d bbe7 013d 9267 febc f5a8 3cbb
000003b0: e325 493e fac6 243e 399c 353e 2962 b03d
000003c0: 1c7d 393e d9b3 9bbd c1df 683c 43d8 1e3c
000003d0: a241 ab3d da33 a8bd 4b1a 9c3d 248a 633d
000003e0: 48ed e3bc 5cea 1d3e ebbb e23d a6ca 99bd
000003f0: 3712 72bb e93d 723e 6186 ba3d 73c7 a0bc
-0.10478511 -0.116596885 0.030108871 0.08917365 0.16590275 0.08130367 0.11438066 -0.08498648
-0.112037875 0.046019815 0.17920996 0.19512615 0.043172557 0.001978013 0.07204286 0.092741
0.106735185 0.025838288 -0.13541807 -0.037688002 0.0030704518 0.067698 0.1829341 0.09848555
-0.081863195 0.13634092 0.21732332 0.0999989 0.05504159 -0.018760966 -0.11790966 -0.13256668
0.018212996 -0.1722035 -0.07756947 0.035168093 0.12761427 0.0012244442 0.011730517 0.18943809
-0.053505637 -0.09231434 -0.16469125 -0.13608111 -0.049628712 0.09684704 -0.09539032 -0.17603397
0.19829006 0.018233644 -0.026656935 -0.023533545 -0.011988914 -0.16120753 0.07739802 -0.16344967
0.061591815 -0.14563374 0.01326997 -0.13577338 -0.04837454 -0.107906066 0.10346673 0.14496435
-0.15481167 -0.21820986 -0.13501014 -0.14638253 0.062164 -0.08849838 0.10302496 -0.062108837
-0.09756819 0.028292002 -0.12787096 0.11139242 -0.098953545 -0.06672962 0.1987278 -0.08958472
-0.096495695 -0.06443723 0.22211029 -0.12186145 -0.11618258 0.07337604 -0.0419886 0.08551285
-0.043863513 0.11333042 0.04459458 0.06738882 0.013685758 0.118870854 0.057599813 0.02618252
-0.21114919 -0.05156615 0.13034818 -0.21615118 -0.17735942 0.059792362 -0.047601253 0.08534354
-0.06282271 0.13861212 0.031440042 0.0731743 -0.10073938 -0.11511456 -0.13581774 0.15123574
0.016541274 -0.06824501 -0.13334802 0.059334226 -0.187657 -0.0752305 0.079453714 0.0805805
-0.14449403 -0.109838545 -0.12685372 0.093837425 -0.061678205 0.019480193 0.09731229 -0.07258229
0.043548793 -0.14988954 -0.18090591 0.18145876 -0.15390603 0.064849 0.07238217 0.04974776
-0.005502761 -0.08255934 -0.07536902 -0.18368311 0.056670994 -0.004310776 -0.13475302 0.12962222
-0.021384502 -0.144381 0.1040483 -0.024880556 -0.08443213 -0.066756964 0.052431 -0.19300832
0.118653916 0.12384603 0.13880956 0.078158 -0.017239245 0.22923256 -0.16035032 -0.10210634
-0.10649766 -0.05200298 0.0042644497 0.065871574 0.0015328765 0.0051779416 -0.027323319 -0.031670034
0.16640285 -0.04301535 -0.08019339 -0.1570964 -0.14272301 -0.20548302 0.16913939 -0.16020605
0.0485138 -0.09146013 -0.10421797 0.030943027 0.017636705 0.008223418 -0.056679316 0.07292939
0.023708856 0.05918361 0.025778102 0.048397858 0.1678131 0.08073807 0.2082343 0.1707118
0.22357725 -0.007746262 -0.17751652 0.100332335 -0.14110999 0.09910877 -0.17066535 -0.1486846
0.034687806 -0.04826876 0.101500325 -0.096992046 -0.09202988 -0.04180106 -0.07085687 0.10565819
-0.035947427 -0.066008724 -0.006470189 -0.13101488 -0.06188694 0.010378421 -0.1945115 0.14454757
0.05573367 0.11742031 -0.062251173 -0.1513052 0.19521031 0.06403102 0.15514728 -0.072632365
-0.049948297 -0.0453692 -0.10512273 0.011782914 0.09272756 -0.08511926 0.022171134 -0.13569215
0.045600433 0.031715136 -0.031055246 -0.002878723 0.19643359 0.16091529 0.17735375 0.086124726
0.18114132 -0.076026626 0.014213503 0.0096951155 0.08362128 -0.08213015 0.076222025 0.055551663
-0.027823105 0.15421432 0.11070999 -0.07509355 -0.0036937126 0.2365643 0.09107662 -0.019626355

sequence.3.bias f4 [16]
00000000: d0c4 c33b 277e dabc 4516 693d 2355 3d3c
00000010: c8e8 ad3c 1078 d43d b7d8 9dbd f8c7 39bd
00000020: ed0e 413e 53eb 2dbe 58f5 133e 21bd fdbd
00000030: 6aea b1bd 79c8 3abd eef8 c1bd 15db 343d
0.0059743896 -0.026671482 0.056906004 0.011555943 0.021229163 0.103744626 -0.07707351 -0.04535672
0.1885335 -0.169843 0.1444906 -0.12389589 -0.08687289 -0.045601342 -0.09471308 0.044154245

sequence.4.weight f4 [16]
00000000: 36b1 6e3f ebf3 823f 01d8 893f f5df 7e3f
00000010: 6880 723f 0d6a 873f c674 7d3f 49b7 7f3f
00000020: 720b 833f d32b 7f3f 60d6 803f 28a5 7f3f
00000030: 197c 7d3f 9cb7 7d3f d55d 7e3f 0009 753f
0.9323915 1.0230688 1.0769044 0.9956048 0.9472718 1.0579239 0.9900631 0.99889046
1.0237868 0.99676245 1.0065422 0.99861383 0.99017483 0.9910829 0.99361926 0.9571686

sequence.4.bias f4 [16]
00000000: 02f2 29bd f14f 503d aab8 293d 249c 313d
00000010: 72a6 863d e646 e2ba c72a 563a 28bf 0b3d
00000020: 5342 98bc 8125 a03d 2749 4f3d ff7c f2bb
00000030: c819 cfba 7a23 e7bb 0d82 c93c 8aca 20bd
-0.041490562 0.050857488 0.041435875 0.043361798 0.06574716 -0.0017263561 0.00081698265 0.034117848
-0.018586313 0.07819653 0.050606873 -0.0074001546 -0.001580053 -0.0070537897 0.024598146 -0.039255656

sequence.4.running_mean f4 [16]
00000000: acf4 ec3e a6b6 c0be a9f9 e9bd 060e c5be
00000010: dc8b 04be 670a 163e 1170 67be 6ecf ca3e
00000020: fcec 003f dfe4 89be e071 163e b6ce af3e
00000030: ca04 77be 1c8d c8be d752 98be cbb2 19bd
0.4628042 -0.3763935 -0.11424572 -0.38487262 -0.12943977 0.14652406 -0.22601344 0.3961138
0.5036161 -0.26932427 0.14691877 0.34337395 -0.2412292 -0.39170158 -0.29750702 -0.037524026

sequence.4.running_var f4 [16]
00000000: c2e4 c03e 4077 333e 18f7 173e fe00 2d3e
00000010: 8002 773d c00f 8c3d 2e3d ae3d 6d0d 2f3e
00000020: e771 3b3e 2954 9a3d 4c87 8b3e 5900 613e
00000030: 524f 0e3e 38c0 f03d 841b e13d 9254 703e
0.37674528 0.17525959 0.14840353 0.1689491 0.06030512 0.068389416 0.08507763 0.17094965
0.18305169 0.075355835 0.2725166 0.21972789 0.13897446 0.11755413 0.10991576 0.23469761

sequence.6.weight f4 [32, 16, 2, 2]
00000000: e127 673a 901d ac3d cbbc 8cbd ae76 f43d
00000010: 0e40 fc3d c0b7 09be 4a02 b1bd e2a8 0dbd
00000020: 9b17 053e a127 61bc e346 a9bd 8252 133d
00000030: d458 a1bd a09f 9ebd 7862 14be 0a45 263d
00000040: b632 d3bd 6564 cf3d 37a6 43bd 7acb 703d
00000050: 62ea a8bd 0c35 ccbb 9125 2c3e a0b0 fd3d
00000060: e9d4 80bd acd6 8cbc 39c6 b13d 4f83 a13c
00000070: 7354 dabd 8435 11bc 09cb 83bd 010d 3f3d
00000080: a9cf 22be ed68 93bd f3c7 4abd 3821 6fbc
00000090: 516b 803d 7622 d5bd 6fcc 7c3d f6a6 51bd
000000a0: 665f 35bd 4042 de3d 1e73 08be 0a48 f23d
000000b0: e0fb 103d f33e 36bd 050d f1bc e3f3 123d
000000c0: 4443 243d 0618 883d ccbf d4bd b603 8f3d
000000d0: 11ef 11bc b707 763d cc61 aebd 098b deb7
000000e0: 4add 303d b683 d33d a3b7 10bd 5192 3a3d
000000f0: 1441 cabd 9a7f 91bc 085d f13d a97c fd3c
00000100: 4be9 06bd bc66 87bd 7a68 b7bc b5bf f9bc
00000110: 2529 afbd bcd1 07be 87e0 bfbd fab0 bc3c
00000120: e80f 07be b2ea 9ebd 910d 70bc 14ac febc
00000130: 1404 0cbe 24f0 13bd 9e7f be3d 95cd 5fbc
00000140: bbab 5c3d ec43 11bd 46bf 82bd 0840 f5bd
00000150: 3b71 823c df2f e0bd b508 68bd ad5d 73bd
00000160: 73ec 9d3d 6b98 16bd ef10 87bd 75a0 933c
00000170: 9086 eabd 664f eebc 44b1 593d 9767 b5bd
00000180: 8885 b6bb 25a5 8dbc 1f3e f2ba 57b8 ad3c
00000190: 134f a03d 1fd9 0f3d 57be f9bd c300 e5bd
000001a0: 9d75 d53d 6faa 943d f358 173c 32f1 fd3d
000001b0: e218 c43d a5df f93d 1b47 703c 6c8f 0d3d
000001c0: 6975 24bd 2a94 483d ed9a 513d 4849 f73c
000001d0: 247a 513d 1a51 923d 59a0 05bc 825a 653d
000001e0: af44 c7bd abf3 81ba 427e eebc 18e0 a53d
000001f0: 6d4a 8d3d f244 67bd a514 483c af28 2bbd
00000200: 10f7 673d 95e0 e43d 4b65 6c3d 4d14 643c
00000210: acac 46bc 2117 b53d 215e c8bc 89e1 ce3d
00000220: dbc4 aa3c f29c 573e 05ea 48bb e8f6 ea3d
00000230: 55bf f13c dd75 1e3e d0e3 c5bd 48e8 ddba
00000240: 59b3 f9bd dae4 e73c 60cf b23d 93d2 be3d
00000250: f066 b1bd eb86 d5bc c082 c13d ae20 02bb
00000260: 6357 91bd 2db6 02be ef9f a5bd 90f8 5b3d
00000270: c895 f13d 9677 e6bd 7944 a63d dce0 18bb
00000280: 684b fd3c 31c8 ef3c f43b e1bd fafa 3ebc
00000290: 4a4f 543d 0b1a 1dbd fb1b 19bd 0fae 28bd
000002a0: a67e a53d 4034 933d 8cce d2bd 290d ef3d
000002b0: ebd0 f33d 4e91 6ebd 67d0 f73d 0f88 263d
000002c0: 6730 bc3d 08b5 b5bd 51be ddbd 5e27 7ebd
000002d0: f786 9eba 3b3f 113e 78f8 b3bd 34ee 8d3d
000002e0: 115d abbd 1018 58bd 8079 273d 8e54 df3d
000002f0: 8b30 1bbe fdcc abbd 5f32 7e3d ac70 fdbd
00000300: b504 37bd 612b c4bc 7061 373d 0756 01bd
00000310: 98bb 70bc c73c a4bd cce9 0a3e bb7b 193d
00000320: 0ec0 043e c2d5 c83d 52af d2bd 7ba7 3dbe
00000330: c238 8b3d a835 153d 08ec b63d 62bc b93c
00000340: 1d5a b1bd 245d 623d c133 1fbd 6983 133e
00000350: f2b3 f23d 27e6 2abd 900b 0a3d bfdc a9bd
00000360: fb55 c63d 13d5 c1bc 8ffc 933d 7cfe 86bd
00000370: 8689 583d 98a5 ddbd 346a 1cbd d41e 553d
00000380: 8659 7dbd 9a4c 74bd ae0a 21be 8dfc a2bd
00000390: 43f7 f3bd 43c6 c0bd 40ce 813d 0a56 e4ba
000003a0: 926e 8fbd 4756 e43c 1a3f f8bd d321 39bd
000003b0: 1a10 1c3d 3aab 96bc 4547 eebc 10c5 efbd
000003c0: ae6a 443d 3956 01bd 4860 b33d cabe 84bb
000003d0: 2a31 8bbd 4d5e 853c 0bef 8f3c cb39 3abd
000003e0: c0ae 92bd e3cb a9bd 345f 823d 9cb5 fabc
000003f0: 571d aabc 3c8c 633d 74c5 01be 427b 963d
0.0008817893 0.08404076 -0.06871947 0.11936699 0.12316905 -0.13449001 -0.08643015 -0.034584887
0.12997286 -0.013742358 -0.08265474 0.035967357 -0.07878271 -0.0774529 -0.14490688 0.040593185
-0.10312407 0.101265706 -0.047765937 0.0587878 -0.0824783 -0.0062319096 0.16811205 0.12387204
-0.062906094 -0.017192207 0.08680386 0.019715933 -0.10660639 -0.008862857 -0.0643521 0.04664326
-0.15899529 -0.071977474 -0.049507093 -0.014595322 0.06270469 -0.104069635 0.0617184 -0.051184617
-0.044280432 0.1085248 -0.13325164 0.118301466 0.035396457 -0.044493627 -0.029425154 0.03587712
0.040103212 0.06645207 -0.10388145 0.0698313 -0.0089070955 0.06006595 -0.08514747 -2.6529206e-05
0.043179788 0.10327856 -0.03533138 0.045549694 -0.09875694 -0.01776104 0.117853224 0.030943232
-0.03293733 -0.06611392 -0.022388685 -0.03048692 -0.085527696 -0.13263601 -0.09368997 0.023033608
-0.13189662 -0.07759608 -0.014651672 -0.031087913 -0.1367343 -0.036117688 0.09301685 -0.013659854
0.053874712 -0.035465166 -0.06384139 -0.119751036 0.015923133 -0.10946631 -0.05664893 -0.059415508
0.07711115 -0.03676645 -0.06595027 0.018020848 -0.11451447 -0.029090595 0.05314757 -0.08857649
-0.0055701174 -0.017290661 -0.0018481648 0.021206064 0.07827582 0.035119172 -0.121945076 -0.11181786
0.104228236 0.0725907 0.009237516 0.1239952 0.095750585 0.1220086 0.01466539 0.034560606
-0.040151034 0.048969425 0.05117314 0.03018631 0.051141873 0.07144375 -0.008155906 0.055994518
-0.09729897 -0.0009914538 -0.029112939 0.08099383 0.06898961 -0.056462236 0.012211953 -0.041786846
0.0566321 0.11175648 0.057713788 0.013920856 -0.012126129 0.08842302 -0.024458947 0.10101611
0.020845821 0.21055964 -0.0030657065 0.11472875 0.02951018 0.15474649 -0.096625924 -0.0016930187
-0.12192411 0.028307367 0.0873096 0.093175076 -0.08662212 -0.02606531 0.09448767 -0.0019855904
-0.07096746 -0.12764807 -0.080871455 0.053703845 0.11796147 -0.11253278 0.08118529 -0.0023327386
0.030919746 0.029270263 -0.10997763 -0.011656517 0.05183343 -0.038354915 -0.0373802 -0.04118162
0.08080797 0.071877 -0.10293302 0.11672432 0.11905082 -0.058244042 0.121002965 0.0406571
0.091889195 -0.088724196 -0.108273156 -0.062049262 -0.0012094666 0.14184277 -0.08787626 0.06930199
-0.083673604 -0.052757323 0.040887356 0.109047994 -0.15155236 -0.08388708 0.062059756 -0.12375006
-0.044682223 -0.023946466 0.044770658 -0.031576183 -0.014693163 -0.08019405 0.13565749 0.037471514
0.12963888 0.09806396 -0.10287346 -0.1852092 0.06797935 0.036428124 0.08931738 0.022672836
-0.08659766 0.055264607 -0.038867716 0.14405598 0.11850728 -0.041723397 0.033702433 -0.08294057
0.09684368 -0.023661172 0.07225906 -0.06591508 0.052865528 -0.108226 -0.03818722 0.052031353
-0.061852954 -0.059643365 -0.1572673 -0.079583265 -0.11912396 -0.094128154 0.06338167 -0.0017420661
-0.070035115 0.027873171 -0.12121411 -0.045198273 0.038101293 -0.018392194 -0.029086718 -0.117075086
0.0479533 -0.03157637 0.087585986 -0.004051064 -0.06796487 0.016280318 0.01757004 -0.045465272
-0.07162237 -0.082908414 0.06365815 -0.030604176 -0.020765943 0.05555366 -0.12672979 0.07347728

sequence.6.bias f4 [32]
00000000: 6e61 3a3d b738 9bbd 8ced 9a3d b2a0 b1bd
00000010: b065 2fbd 7a1a 423d 2d93 5abd 3e1c b0bb
00000020: 3e9d 8d3b 56c6 493d d5a2 093d 354e fe3d
00000030: ac80 2eba 3fe1 d1bd 38dc 0fbe a7fc ed3a
00000040: 8538 f13d 27c7 bf3b fe17 013e 4d44 8b3d
00000050: 92c3 373d 5132 5ebd 3cf4 e0bd 84f9 163d
00000060: 7fc9 a1bd ee2c 1c3e 87e2 0e3e defb e7bc
00000070: 5c83 b4bc 1a9a 053e 403d 0abe 1cac b6bd
0.045503072 -0.07579177 0.0756484 -0.08673228 -0.042821586 0.04738853 -0.053363014 -0.0053744605
0.0043217232 0.049261414 0.033602554 0.124172606 -0.0006656747 -0.102480404 -0.1404885 0.0018156961
0.11778358 0.005852598 0.12606809 0.06800137 0.044864245 -0.054247204 -0.10984084 0.03685905
-0.078997605 0.15251514 0.13953601 -0.028318342 -0.022035293 0.13047066 -0.13499928 -0.08919546

sequence.7.weight f4 [32]
00000000: 6716 863f 794e 823f de02 863f deb8 823f
00000010: ea3d 7f3f 698b 833f 4901 823f 031f 803f
00000020: 5f8b 803f 50d6 7f3f 08f2 7c3f 9419 843f
00000030: 9f12 813f 43f4 7b3f 13db 803f 1f0f 833f
00000040: 1f1d 813f ff9e 7d3f 0f7e 763f d3fc 803f
00000050: 993a 843f 5031 853f 566a 763f a703 803f
00000060: b33d 7a3f 4966 753f e8f0 7e3f 5936 803f
00000070: 0fb8 7f3f 7f46 7c3f 84ae 823f 6434 793f
1.0475587 1.0180198 1.0469625 1.0212667 0.9970385 1.027692 1.0156642 1.0009464
1.0042533 0.9993639 0.9880681 1.0320306 1.0083808 0.9841959 1.0066856 1.023899
1.0087012 0.99070734 0.962861 1.0077156 1.0330383 1.0405674 0.96256006 1.0001115
0.97750396 0.958592 0.99586344 1.0016586 0.99890226 0.9854507 1.0209508 0.97345567

sequence.7.bias f4 [32]
00000000: 38ed 1dbd 5e04 0cbd 3052 f03a 43fc b0bc
00000010: 201b 5dbd b57b 5dbd 1329 453c 53ff 9fbc
00000020: 8fe7 f33c acd9 66bd d276 283c 36e3 183c
00000030: 98d5 c73c d941 12bc fc40 eabc cb84 843c
00000040: b515 64bc 7542 613b d977 16bd 7a51 07bd
00000050: 6112 08bd 5880 95bc 5152 0abe 78be 2d3c
00000060: 8f2f d6bc fbb8 283c cca7 b0bd 0acb 5ebc
00000070: d261 09bb 2af8 f33c 2249 2ebc 4c90 40bb
-0.038556308 -0.034183852 0.0018335041 -0.021604663 -0.053980947 -0.054073054 0.012033719 -0.019530928
0.029773502 -0.05635993 0.010282235 0.009331515 0.024393842 -0.008926832 -0.02859544 0.016176602
-0.013921191 0.0034371887 -0.03673539 -0.033036686 -0.033220652 -0.018249676 -0.13507964 0.010604493
-0.026145725 0.010298009 -0.08625755 -0.013598213 -0.0020962846 0.02978142 -0.010637553 -0.0029382883

sequence.7.running_mean f4 [32]
00000000: 58f7 e4bc 72d0 b9be 5357 b63e 07a9 aabe
00000010: cb96 2dbd b152 5f3e 1bca 0ebf 1830 43bc
00000020: b328 90be c8c8 cdbd 7aaf cebe 7833 8cbe
00000030: df33 fbbd 8cec 6cbe ee40 873b 66d5 f13d
00000040: 9ac2 873d 5e46 b9be 365e 133e f8c1 49be
00000050: 0e85 86be acfd 3fbe 1d6c ee3e cb22 953e
00000060: 17ac 6abd 040e a53e 6914 f93e 863b 08bf
00000070: 832a d7be 0a12 913e e638 56be 485f bfbd
-0.027949974 -0.36291844 0.35613498 -0.33332083 -0.042380136 0.21808888 -0.5577714 -0.011913322
-0.2815605 -0.100480616 -0.40368253 -0.27383018 -0.12265753 -0.2313711 0.0041276133 0.11808281
0.06628914 -0.36186498 0.14391407 -0.197029 -0.26273388 -0.18749112 0.4656686 0.29128107
-0.057293024 0.32237256 0.48648384 -0.53215826 -0.4202462 0.28334075 -0.20920143 -0.09344345

sequence.7.running_var f4 [32]
00000000: c457 013e a370 a23d bda2 1f3e 6647 503e
00000010: 178b b03d 229d 4e3e 9e1d 1e3e 6efe b83d
00000020: 339b cf3e 0e11 3a3e f70a 3b3e 0f1e 153e
00000030: 1179 703e a1ce a13d 7010 de3d 26b8 bf3d
00000040: 5b88 0e3e 9303 563e e102 023e 1ddb 4a3e
00000050: ae1a b93d 20cd c23d 2264 f83d 9fe3 a63d
00000060: 8116 f33d d47a 223e 6f30 183e bc30 ce3d
00000070: c047 ba3d 045c 093e 9459 003e 2901 a53d
0.12631136 0.0793164 0.15589423 0.20339736 0.08620279 0.20177129 0.15440986 0.090329036
0.40548095 0.18170568 0.18265902 0.14562248 0.23483683 0.079007395 0.10842979 0.093612954
0.13919203 0.20899801 0.1269641 0.19810148 0.09038292 0.09511781 0.12128474 0.08148884
0.11869527 0.15867168 0.14862226 0.10067889 0.090957165 0.13414007 0.12534171 0.08056862

sequence.9.weight f4 [64, 32, 2, 2]
00000000: c8d4 833d c843 103d f4d5 96bd d631 07be
00000010: 8bdc 78bd 9c22 983d 6bf3 e03d 4ade 083e
00000020: fcd2 6abd 9668 b43d dada 663d 6b4e 77bd
00000030: 6a67 4c3d 7a8a 8abc bb59 e13d 47c5 c13c
00000040: d957 1dbb 3deb da3d f2cc a4ba d8f8 e2bd
00000050: f0d6 1d3d f6cc 4c3c 3233 ecbc fea0 87bc
00000060: 47a2 a7bd 33b9 893d b893 63bd 5be7 81bc
00000070: a8c8 84bd 58fb 09bc 7010 1a3c a7aa 16bc
00000080: d391 c8bd f3f1 2c3d d70d 96bb 60f1 b8bd
00000090: 1bf1 20bc 39ca d0bc 9fbf 89bd 2185 2cbc
000000a0: 7536 0fbb 2d05 abbb 9ddd edbb 1136 babd
000000b0: fcd2 2dbd c379 873c 14fe 823c 8b73 2c3d
000000c0: 83de 8bbd 2517 91bd abf3 3ebc 547d 2abd
000000d0: 2059 193d 51c7 1b3d c3a1 a43c 2271 843c
000000e0: 5e6f c33d df7b 383c 4d74 16bd f679 ef3d
000000f0: 9e07 1cbd 1953 363d 5575 adbc 7fcf 153d
00000100: f74e 783b c01f 82bd 0ba9 673c 125c ea3c
00000110: 826a 9abc 4231 d33c a445 73bd cb11 f83c
00000120: 14e4 b93d 1f16 aabd fd06 b1bc 03a3 98bd
00000130: 49ac 213b 010f f33d 1bac a6bc f359 8abd
00000140: 6d11 943d 97fb b93c 3e33 59bd 50c4 d1bc
00000150: 0a1e 7d3d 3b22 4b3d b8ea b43d ca8f 9fbc
00000160: a339 65bc fc8e 943d 210e a53b da74 3fbb
00000170: 58bc 043c 983f 7cbd 202f bdbd 9181 d63d
00000180: aa96 553d ffb4 b2bc 104f afbd 0d47 d73c
00000190: 5c1d 5f3b 7734 9cbd 2ffb 6bbd d14f b63d
000001a0: 6bc3 bebc f193 d3bc f1e6 2f3d 3c1a 1ebd
000001b0: 9ddc 4ebd 1318 193d e9ef 913d ad6f 4f3d
000001c0: de1f abbb 073c 0b3d 6b77 26bc db0c 87bd
000001d0: 4a52 a0bd dbc8 88bc 3f2b 86bc d4a2 543d
000001e0: f064 eabd ee56 0f3c 2bf3 953c 47f9 ba3d
000001f0: 8925 e93c ce92 e6bc d15e 49bd 2ed7 af3d
00000200: af66 773d 481d 8dbd 5134 0f3d 6755 963d
00000210: 7474 533d 4f8d 313d 7b75 1a38 c659 903d
00000220: ca65 46bd c125 d7bd 42be 5ebd d045 03bd
00000230: 9461 d53c 4d98 2a3d 2c63 c93d 07fd 653d
00000240: 7afb 00bd 3656 a9bd d35d 86bc 8f9f c2bc
00000250: 9ea3 5b3d 7a21 6abc 95c4 5abd de6b a73c
00000260: 80a9 05be 1d0d f73c c0cb 65bd f793 dbbc
00000270: d2ff 693d 602d 97bc d916 15bc 8a73 50bc
00000280: fe59 b23d 5e5d e53d ada8 203d e4ff a23d
00000290: 3c3b 873d 1125 84bd 4f7b 643d 8dc3 d6bd
000002a0: 0e6a ee3d 3774 b73c c811 67bd c2ad 653d
000002b0: a505 4fbd e65e 143d 97b7 9cbd 89b1 5ebd
000002c0: f1e5 1d3d ebd7 b9bd 47b1 38bc b86a a83d
000002d0: 13cb ecbd 89da 86bd f10b 38bd d6ef e63d
000002e0: b25a ea3c 843f 813d 820a afbc 02b9 963d
000002f0: e777 cd3d f2e3 923d 6cde 933d 3989 4b38
00000300: f7ab a43c 935a fcbc 1489 6b3c a252 873d
00000310: 58f6 07bd 775f 703d 7fac 76bd a348 c63d
00000320: 5a55 803d 3534 aabd 9b85 57ba 152b 173d
00000330: a13b f03b 3b76 8d3d 7499 12bd 7131 b43d
00000340: cce5 6a3d 06bc 00bd a0df 77bd 0091 5e3d
00000350: 0870 223d 0608 a83d 97a4 54bd 5a65 ebbc
00000360: 610c 173d a1d7 a43d f444 19bd c0a4 2c3d
00000370: 29ef cbbd 3e7f 59bd bc01 4f3d 9afe 7d3c
00000380: 9148 51bd f3e8 52bd 4b54 0fbd 48b4 e13c
00000390: 2974 463c 9853 44bc 9b4f 863d 8e18 73bd
000003a0: b7f0 973d 96c9 00bc 434e 02bc 1774 dcbc
000003b0: bd11 90bd 45cc af3c 5593 bebd d474 bbbd
000003c0: dddc 913d c1a6 f0bc 9782 133d eedd cf3d
000003d0: 531d fcbd cfcd 0b3d 615b 80bd 9ca7 473d
000003e0: 5ccd 813d b77b 773d 119c eb3d f0d6 76bc
000003f0: 5bd2 d83c 665c 053d c7ba 443d d84b e9bb
0.06437069 0.03522089 -0.07365027 -0.13202605 -0.0607572 0.07428476 0.10983928 0.13366047
-0.057330117 0.08809011 0.056361057 -0.06037752 0.04990331 -0.016911734 0.11003443 0.02365364
-0.002400866 0.106893994 -0.0012573285 -0.110826194 0.03853506 0.012500038 -0.028833006 -0.01655626
-0.08185249 0.06724777 -0.055560797 -0.01585739 -0.06483585 -0.008421741 0.009403333 -0.00919596
-0.09793439 0.04222293 -0.0045792866 -0.09030414 -0.009823109 -0.025487052 -0.06726002 -0.010529787
-0.0021852527 -0.005219123 -0.0072590844 -0.090923436 -0.04243754 0.016537553 0.015990295 0.042102378
-0.0682955 -0.070844926 -0.011654775 -0.04162343 0.03743851 0.03803188 0.020096665 0.016167227
0.09542726 0.011260002 -0.036732007 0.11693184 -0.0380932 0.04451284 -0.021174112 0.036574837
0.0037888864 -0.06353712 0.014139424 0.028608356 -0.018849615 0.025780324 -0.059392586 0.030281922
0.090767056 -0.083050005 -0.021609778 -0.07452967 0.002466934 0.11868096 -0.020345738 -0.06755438
0.07229886 0.022702975 -0.053027384 -0.025606304 0.061796226 0.04959319 0.088338315 -0.019477744
-0.013990792 0.072538346 0.0050370847 -0.0029213936 0.008101545 -0.061584085 -0.09237504 0.104739316
0.052145638 -0.021814821 -0.08560002 0.026278997 0.00340446 -0.076271944 -0.057612594 0.089019425
-0.023286542 -0.02582738 0.042944852 -0.038599238 -0.050503362 0.037376475 0.07125837 0.05064361
-0.0052223047 0.033992793 -0.010160307 -0.06594249 -0.078281954 -0.016697338 -0.016378043 0.051913098
-0.114450336 0.008748753 0.018304428 0.09129577 0.028460281 -0.028146174 -0.04916269 0.08585964
0.06040066 -0.068903506 0.034962002 0.07340508 0.05162473 0.043347653 3.6825873e-05 0.07048373
-0.048436917 -0.10505248 -0.054380663 -0.032049 0.026047505 0.04164915 0.09833369 0.05614951
-0.031489827 -0.082683966 -0.01640216 -0.023757724 0.053622834 -0.014290208 -0.05341013 0.020437177
-0.1305294 0.03015762 -0.056102514 -0.026803954 0.057128735 -0.018454254 -0.009099686 -0.012722859
0.08708571 0.11199449 0.03922336 0.079589635 0.06603095 -0.06452382 0.05578166 -0.10486517
0.11641322 0.022394283 -0.056413442 0.05607391 -0.050542492 0.036223315 -0.076522045 -0.05436853
0.038549367 -0.09074386 -0.011272735 0.0822348 -0.11562171 -0.06584651 -0.044933263 0.11276214
0.0286077 0.06310943 -0.021367315 0.07359506 0.10032635 0.07172383 0.07220158 4.852677e-05
0.02010153 -0.030804908 0.014375944 0.06607558 -0.033193916 0.058684792 -0.0602231 0.09681823
0.062662795 -0.08310739 -0.0008221508 0.03690632 0.007331327 0.06907316 -0.035790876 0.08798493
0.057348058 -0.031429313 -0.060516 0.0543375 0.039657623 0.08204655 -0.051914778 -0.028734852
0.03687704 0.080489404 -0.037419274 0.042149305 -0.099577256 -0.053099863 0.050538763 0.015502596
-0.051094595 -0.05149169 -0.034992497 0.027551785 0.012112656 -0.011982821 0.06558152 -0.05934959
0.074189596 -0.007860562 -0.007953229 -0.026910825 -0.07034633 0.021459708 -0.09305445 -0.091531426
0.071222045 -0.02937639 0.036013212 0.101497516 -0.12310281 0.03413182 -0.06267429 0.04874383
0.06337997 0.060420718 0.11504377 -0.0150658935 0.026467493 0.03255882 0.048029687 -0.007119637

sequence.9.bias f4 [64]
00000000: fbc0 9bbd 7d5d b5bd 13a8 d1bc 48a5 4dbd
00000010: b1ac a83d 408c 39bd 9533 06bd 5715 383d
00000020: 79e7 193d fbd6 913d 5e26 703d 6e70 b53d
00000030: 89fd e2bc eb95 62bd 23fc 053d fdc5 60bd
00000040: 31f4 b2ba f55d 91bd e5f1 69bd 3ed1 c53d
00000050: 16ec 103d c471 f3bb b6a4 8bbc 7afc 363d
00000060: 5110 efbc cacb ea3c fe04 893d f187 03bd
00000070: 7e7c 65bd 9a9e 83bd 66a1 9abd 53a3 2eba
00000080: aa15 793d 98bc 61bd 26bb d73c 0dd2 16bd
00000090: 207b d63c bd20 583c 788f fa3c af4a 9dbd
000000a0: 00ca b3bd 7a6b d3bc 9160 2f3d c44e e6bb
000000b0: 05f0 3bbd 794d e13b 7851 9a3c b68b b23d
000000c0: 798b c83d 59d1 0ebd ced7 76bc da76 e33d
000000d0: 0691 ee3c 7496 4abd 0963 583c 374f 573d
000000e0: 35fd e3bc f6b1 55bc 1718 e73c a5ed 73bd
000000f0: 1378 19bd 748a a3bd ee22 cbbc 5928 00bd
-0.076051675 -0.08855722 -0.02559284 -0.050206453 0.08236063 -0.04529977 -0.032764036 0.044942226
0.037574265 0.071210824 0.05863034 0.08859335 -0.027708786 -0.055318754 0.03271116 -0.054876316
-0.0013653097 -0.07097999 -0.057115454 0.096590504 0.0353814 -0.0074293334 -0.017046314 0.044674374
-0.029182585 0.028661627 0.06690405 -0.032112066 -0.056026928 -0.06426735 -0.075503156 -0.00066619104
0.060811676 -0.055111498 0.026334357 -0.036821414 0.026181757 0.013191399 0.03058599 -0.076802604
-0.08778763 -0.025808085 0.042816702 -0.0070284326 -0.045883197 0.0068756905 0.018837675 0.08718054
0.09792227 -0.03486762 -0.0150661 0.111066535 0.029121887 -0.04945989 0.013207206 0.05256578
-0.0278307 -0.0130429175 0.02820973 -0.059552807 -0.037468027 -0.07985392 -0.02479693 -0.03128848

sequence.10.weight f4 [64]
00000000: 673c 833f e5c4 783f 32f4 793f 3b68 7e3f
00000010: 251c 7c3f 3318 7e3f 7be2 7d3f 79d0 833f
00000020: 5d9f 7e3f d148 823f ebb0 793f d55c 7d3f
00000030: 2ec3 803f 4f78 883f e69b 813f b80d 853f
00000040: 7975 843f 53e1 823f eb60 813f f324 703f
00000050: 46c8 833f 75db 833f a997 763f d9cd 843f
00000060: 79cd 833f 9977 763f ea0e 803f 0b01 803f
00000070: 6e34 803f 20c2 833f b374 803f 22ab 7f3f
00000080: ada2 6f3f dcd5 803f 3128 803f 4397 7b3f
00000090: 406b 883f 0a8f 823f d620 813f bd34 7c3f
000000a0: 6087 793f c1be 843f 3899 763f bb1a 7e3f
000000b0: 880d 853f bfb4 7e3f e6bf 7a3f bdba 813f
000000c0: 28b0 7d3f 113e 803f 9939 7e3f 38e6 7f3f
000000d0: 89d4 7c3f ab02 813f f9c7 833f a358 7c3f
000000e0: a15f 813f bc78 7b3f cdc7 843f dfb6 813f
000000f0: c943 7e3f ff02 7a3f ee89 7a3f 115f 823f
1.0252808 0.9717544 0.9763824 0.99377793 0.98480445 0.99255675 0.99173707 1.0297996
0.9946192 1.0178472 0.9753558 0.98969775 1.0059564 1.0661715 1.0125701 1.0394812
1.034835 1.0225013 1.0107702 0.9380638 1.0295494 1.0301348 0.96325165 1.037532
1.029708 0.9627624 1.0004551 1.0000318 1.0016 1.0293617 1.0035614 0.998705
0.936076 1.0065265 1.0012265 0.9827768 1.065773 1.0199902 1.0088146 0.9851797
0.9747219 1.0370713 0.96327543 0.9925954 1.0394754 0.99494547 0.97949064 1.0135113
0.9909692 1.0018941 0.9930664 0.9996066 0.987618 1.0078939 1.0295402 0.9857275
1.0107309 0.982311 1.0373474 1.0133933 0.9932218 0.9766082 0.97866714 1.0185262

sequence.10.bias f4 [64]
00000000: a420 24bd 8b3d 03bd f1fc 25bd a1c9 9fbd
00000010: e7e8 34bc 99b5 91bd 9cd9 14bd b55f 9dbb
00000020: c0b6 fabc 302b 823b 66d1 71bd 9a7d 2fbd
00000030: 0c94 98bc f94d 663d e4eb 07bc 194f 41bd
00000040: c5ab 5ebd 4ff7 24bc ee19 78bc 47f6 d6bd
00000050: a2b2 dbbc fac0 41bd 298d 1ebd 9dcf 39bc
00000060: f61f 81bc 2aa2 f2bd a767 febb 00d2 b63c
00000070: 924f 19bd 5f97 0e3b f008 94bd 18a9 04bd
00000080: 6814 07be 7b10 3abd 6f35 afbd 91cf 15bd
00000090: 12c0 38bc aa4b dabc d3b5 72bd 0da0 9abd
000000a0: cf0b cdbb b2ad e6bc 461d 7ebd ab1c 15bd
000000b0: 6126 64bd f810 42bd b47f 73bd 4672 7abd
000000c0: 6e58 2ebc 1844 7ebd 4a38 2dbd 5d56 c3bc
000000d0: fede d6bd 43d8 acbc bce0 573d a5d7 37bd
000000e0: 300a f6bc a1d9 07bd 4403 0dbd 8351 12bd
000000f0: 33f0 85bd b92d 5abc d8e9 b5bd 3039 7abd
-0.04007019 -0.032041114 -0.040524427 -0.078021295 -0.011041856 -0.07114715 -0.03634034 -0.004802669
-0.03060472 0.0039724335 -0.05903759 -0.042844392 -0.018625282 0.056226704 -0.008295987 -0.047194574
-0.05436303 -0.010068729 -0.015142901 -0.104961924 -0.026818577 -0.047303177 -0.03870884 -0.011341003
-0.01576231 -0.118473366 -0.007763821 0.022316933 -0.0374294 0.0021757705 -0.07228267 -0.032387823
-0.13191378 -0.045425873 -0.085551135 -0.036574904 -0.011276262 -0.026647408 -0.059255432 -0.075500585
-0.006257511 -0.028158996 -0.062039636 -0.036404293 -0.055700663 -0.047379464 -0.05944796 -0.061144136
-0.0106412005 -0.062076658 -0.04229001 -0.023844892 -0.10491751 -0.021099215 0.052704558 -0.04488339
-0.030034155 -0.03316653 -0.034426942 -0.035722267 -0.06539955 -0.013316565 -0.08882493 -0.061089694

sequence.10.running_mean f4 [64]
00000000: 2abd d5bd 284b 9b3e e13a 803e d92a 0f3f
00000010: 5382 c93d c936 4e3e b9bf 2b3e d1dc be3e
00000020: 46c8 133f 9f24 06bd ebfd 8d3b b984 203e
00000030: 960a a13e 7b71 1fbf 8ddd 4c3d ffd7 03bf
00000040: f6ca 56be 6105 1dbe 31dc 543e 3a46 973e
00000050: bbb2 42bf 6156 c1be 46cc 84be 268d b8bd
00000060: 9e69 2d3c 0224 ecbc 4c49 cd3e 0631 3e3e
00000070: cfae acbe 01e9 7abc 3ded f63e acb8 303e
00000080: 4484 f53e 95cd de3d 2b85 3fbc 8861 953e
00000090: a317 15bf 8be2 1c3a da14 ddbe eb28 de3e
000000a0: fc96 fdbe 1525 ca3e 511f eb3e a4b1 c2be
000000b0: e66a 3ebe 8f43 953e f571 3b3f f5b6 943e
000000c0: 86f6 b13e a588 153e 1751 363e 0692 ecbe
000000d0: a314 ca3d 8ee1 08be 3d83 8c3e b792 173e
000000e0: bfe8 2abf b98d b5bc 7e26 27be bd0e f5be
000000f0: 0492 62bd 8f2b 53bf b95f 103d cb24 5c3e
-0.10436471 0.30330777 0.2504492 0.55924755 0.098393105 0.20138086 0.16772355 0.37277845
0.5772747 -0.03274977 0.004333248 0.1567563 0.3145339 -0.6228253 0.050015975 -0.5150146
-0.20975861 -0.15334083 0.20787121 0.29545766 -0.7605397 -0.37761214 -0.25937098 -0.09011297
0.010584263 -0.028825764 0.40094984 0.18573388 -0.33727118 -0.0153143415 0.48227873 0.17257947
0.47952473 0.108790554 -0.011689465 0.29175973 -0.5823919 0.0005984685 -0.4317997 0.43390593
-0.49529254 0.39481416 0.4592233 -0.38026154 -0.18595466 0.29153106 0.7322076 0.29045835
0.34758395 0.14602907 0.17804371 -0.46205157 0.098672174 -0.13367292 0.27443877 0.14802061
-0.6676139 -0.022162305 -0.16323277 -0.47862807 -0.055315033 -0.8248834 0.03524754 0.2149841

sequence.10.running_var f4 [64]
00000000: c9d2 dd3d 0441 3f3e ec4c 0d3e 6d99 9e3e
00000010: d806 fd3d a355 e23d fe41 1b3e e9ce ee3e
00000020: ccf2 473e 753c 233e c8db 273e ddd1 043e
00000030: 1c9c ea3d 7fdf 2e3e d617 093e c98f 873e
00000040: c50a 1b3e 2852 3e3e 8e95 0d3e 651a 2d3e
00000050: 1bb4 823e e402 533e 3ded 3c3e c069 643e
00000060: 6222 403e 6903 023e 2695 703e 39cb 353e
00000070: d5fd 7f3e 36d3 0d3e bef8 163e 74bc bd3d
00000080: 7004 383e a926 1f3e fad4 563e 2cef e93d
00000090: 3777 203e ca4f 123e 9379 4e3e 430d 183e
000000a0: e96e a53e 836a e73d b97a dc3d fdfe 563e
000000b0: 3896 903e f3c1 103e 3fed 6a3e 4c43 dd3d
000000c0: 3c82 4e3e 3c18 333e a84a 363e 5c09 1f3e
000000d0: 9fe8 483e 1591 d13d 9ca2 783e 1240 443e
000000e0: 6092 633e 61ec 373e 3e6c 0f3e 3b92 793e
000000f0: c4d6 443e 5b77 403e 6db8 003e 0656 6b3e
0.1083122 0.18677145 0.13798875 0.3097643 0.12354821 0.1105149 0.15161893 0.46642235
0.19526213 0.15941031 0.16392434 0.12970681 0.11455557 0.17077444 0.13387999 0.26476887
0.15140827 0.18586028 0.13826582 0.169046 0.25528035 0.20606571 0.18449874 0.22305965
0.18763116 0.12696613 0.23494396 0.17753305 0.24999173 0.13850102 0.14743325 0.0926446
0.17970443 0.15542091 0.20979682 0.114225715 0.15670477 0.1428825 0.20163564 0.14848809
0.3231118 0.112996124 0.10765595 0.20995708 0.28239608 0.14136486 0.22942065 0.108038515
0.20166868 0.17489713 0.17801917 0.15530914 0.19619988 0.1023275 0.2428078 0.19165066
0.22223806 0.17961265 0.14006135 0.24372189 0.19222552 0.1879553 0.12570353 0.22982034

sequence.12.weight f4 [32, 64, 2, 2]
00000000: 7075 833d ed20 b13c 092c c1bb 80d6 cc3c
00000010: 6c03 3c3d 9bf6 4d3c fdb9 8dbd f3e1 273c
00000020: 55dc a83a b78f 063d 0d07 073d 62b5 723d
00000030: edb2 b03d 4631 013d 95dc b0bc e1c5 84bd
00000040: 9888 3d3d 2aca dd3c 6740 4b3d 72e8 9a3c
00000050: c292 293d 42d5 a33c 4342 b7bb 0e3a 9d3c
00000060: 5d27 95bd 3a3d 583c 8702 95bd 8591 23bd
00000070: e0ce a5bc aab1 dabc 3265 4dbd 37e6 acbd
00000080: 0352 a0bd 90be c8bd 3004 723d 7563 7cbd
00000090: dbc9 a8bc 02f0 62bd 1bb1 233c fa97 05bd
000000a0: 6e00 95bc b23e 293c f886 a2bc ceaf d13c
000000b0: 8828 843b 5ea7 f73b 1dea 0d3d 5e8c 26bd
000000c0: b07e 05bb a0d3 423c 4b98 623d f134 833d
000000d0: cf85 63bd a72e 04bd 85dc d8bb 4edc 433d
000000e0: 9c4e 563d 1106 2ebd 947b 663d 60f0 8e3c
000000f0: 7d37 4dbd 0abe 9dbc dd5d 22bd e1fa ff3c
00000100: cdac c8bc 80a7 8f3d 008d 9a3d 08c2 49bc
00000110: 8fa4 5dbd 919f 9bbd a871 d43c 2c2f 69bd
00000120: cfe1 ee3c 83f5 3ebb c081 37bd 5480 a0bc
00000130: 9a26 78bd 8148 f0bc 470d 42bd e970 293d
00000140: e0c9 70bc b8da 68bd 0dc2 01bd 7158 3abc
00000150: 8263 b13c 95d9 a43c 4bb9 893d 6e8b 0d3e
00000160: 1ff9 37bd 945b dabc 27a1 ce3d a3da 843d
00000170: ea9f aabc 460f 1dbd b0ad d0bd c158 65bd
00000180: eef1 0a3d dd15 2f3c 2f7c 043d 2e4d 18bc
00000190: bcf4 d13d b8ac a03b 2cfd 8dbc 8d7d ef3b
000001a0: 02a2 123d 56bd faba 0735 5dbc 1c7c 983c
000001b0: 8bcf 4ebd 91d9 afbd 72d0 10bd 53bf 203d
000001c0: db0c 383c 4c8e 923d ff3d 933d 14ce 2c3d
000001d0: 4c45 3fbd 53df b0bc 623d 88bd 38ee 64bd
000001e0: be27 d5bb b839 f23b f0e0 73bd 6cbc 30bd
000001f0: f6ee 8dbc 0f4d b53b 5688 a4bd 5115 253b
00000200: 8ab0 09bd ccb5 683d 297a 03bd 7ff4 27bd
00000210: 4e59 88bc cc1e a0bc 9e31 6cbd 30cb e8bc
00000220: b247 4dbc 9819 b7bb 54fb 82bc dbba 14bd
00000230: 1014 acbd fb4a 50bc cea6 243d 938f 30bd
00000240: 2a78 d43c 0015 44bd be2c a13d 262d 873a
00000250: 947f 213c daf0 bd3c 4100 49bd c80f 253d
00000260: 1948 563d d972 6dbd 982e 6a3c fc27 0ebd
00000270: b1cd 8d3d c59f 4d3d 1c23 203d 2b84 313d
00000280: 41c1 6ebd dfb9 61bb 9192 b73c 6d1c 313d
00000290: e0f2 6d3c 8f95 1fbd 5e97 e6bd b2b0 b5bd
000002a0: 1187 2bbd 5c15 61bd 794b 19bd b86a 60bd
000002b0: 8ffc 6cbd 3bc1 6b3c c059 253d 0e81 013d
000002c0: c5d8 ffbc e4a2 88bd 2bfe 10bd 81a6 34bd
000002d0: 3398 96bc c44d 51bd 12a4 123d 8127 b63c
000002e0: a030 863c ff5e 183b c9d4 ab3c 15a5 d6bb
000002f0: be3c 6abc 9188 cbbd a720 c6bc a7a9 b9bd
00000300: d0b3 1b3d f09c 9cbd db10 ffbc 1949 47bb
00000310: bbb5 3d3d e63b 9e3d 48f6 733a 20c6 853c
00000320: 77dc 753d 2d01 ac3c 46c1 103d e158 02bd
00000330: 6c7c 353c 7af1 f3bc 0d21 333a f16f 113d
00000340: cdcd aebc 7ace 593d e9ea 3c3d 08fe 10bd
00000350: cbed 59bc 80c4 13bc 4212 81bc 7cfb d8bc
00000360: e9dc bf3c f430 923c a916 e53c 9510 8f3b
00000370: 1503 ef3c cc88 693d 43bc d8ba f025 5f3d
00000380: 6368 0a3d 2e22 03bd a8c1 19bd a507 23bd
00000390: 0420 223d 5fb8 893b b0b2 8b3d 0844 713d
000003a0: 14c4 823c 2afa 43bc cffb c1bc f190 c43d
000003b0: 3c2f 0e3d 3454 8c3d c468 c33d 5133 6c3c
000003c0: c89a a33d 4e6c ac3c 6e62 03bc a31f 133d
000003d0: c971 55bd 2c5d 7b3b a279 0abd 9441 193d
000003e0: 0427 d0bc 17bd 11bd cbfb 223d d75c 2fbd
000003f0: 65f4 2a3d 5f09 663d 239c c63c 46cb 293d
0.06418884 0.021622146 -0.005895142 0.025004625 0.0459017 0.012571002 -0.0692024 0.010246742
0.0012883047 0.0328519 0.03296571 0.05925501 0.086278774 0.03154113 -0.021589557 -0.06483055
0.046272844 0.027073938 0.049621966 0.018909667 0.041399725 0.01999915 -0.005592616 0.019192722
-0.072828986 0.013198191 -0.07275873 -0.0399337 -0.020240247 -0.026696045 -0.050145335 -0.084423475
-0.078281425 -0.09801972 0.059086025 -0.061618287 -0.020604065 -0.05540467 0.009990956 -0.03261564
-0.018188681 0.010329889 -0.019839749 0.025596526 0.004033152 0.0075577935 0.034647096 -0.04066121
-0.00203697 0.011891276 0.05532102 0.06406582 -0.05554753 -0.032271054 -0.006618085 0.04781752
0.05232106 -0.042486254 0.056270197 0.017448604 -0.050101746 -0.019255657 -0.039640296 0.031247558
-0.02449646 0.0701437 0.07546425 -0.012314327 -0.054112013 -0.07598794 0.025933102 -0.056929752
0.029160408 -0.0029138036 -0.044801474 -0.019592442 -0.06058369 -0.029331448 -0.047375944 0.041367445
-0.014696568 -0.05684921 -0.031679202 -0.011373625 0.021653894 0.020123282 0.06724795 0.1382272
-0.044915315 -0.026654996 0.10089331 0.06487014 -0.020828206 -0.038344644 -0.10189378 -0.055992845
0.03392213 0.010686365 0.032344993 -0.009295745 0.102517575 0.004903402 -0.017332636 0.007308668
0.035799034 -0.0019129913 -0.013501412 0.018613867 -0.050490897 -0.085864194 -0.03535504 0.03924496
0.011233534 0.07156047 0.07189559 0.04218872 -0.046696946 -0.021590864 -0.06652333 -0.055891246
-0.006504982 0.0073921345 -0.05954069 -0.043148443 -0.01732586 0.0055328677 -0.080338165 0.0025189708
-0.033615626 0.056814 -0.032098923 -0.041004654 -0.016644146 -0.019545935 -0.057664506 -0.0284172
-0.0125293005 -0.005587768 -0.015988983 -0.03631101 -0.08402264 -0.012713189 0.04019814 -0.043105673
0.025936205 -0.04787159 0.07869862 0.0010313138 0.009857077 0.023186136 -0.049072508 0.040298253
0.05231485 -0.057970855 0.014293335 -0.0347061 0.06923998 0.050201196 0.039095983 0.043338936
-0.05828977 -0.0034443063 0.022408755 0.04324 0.014523238 -0.03896099 -0.1125934 -0.088715926
-0.041876856 -0.05495201 -0.037425492 -0.054789275 -0.057858046 0.014389331 0.040368795 0.031617217
-0.031231293 -0.06671694 -0.035398643 -0.044104103 -0.018383121 -0.051099554 0.035801 0.022235634
0.016380608 0.0023249981 0.020975487 -0.006550441 -0.014296709 -0.09938157 -0.024185492 -0.09065562
0.03801328 -0.07647121 -0.031135967 -0.003040856 0.04631589 0.077262685 0.0009306413 0.016329825
0.060024705 0.020996654 0.03534057 -0.031823043 0.011077028 -0.029778231 0.0006833233 0.035507146
-0.021338368 0.053175427 0.046122465 -0.035398513 -0.013301323 -0.009019017 -0.015755776 -0.026487105
0.023420768 0.017845608 0.027964907 0.0043659904 0.029176274 0.057015225 -0.0016535599 0.05447954
0.033790957 -0.03201502 -0.0375382 -0.039802212 0.039581314 0.004202887 0.06821191 0.05890277
0.015962638 -0.011961499 -0.023679642 0.09597958 0.034713015 0.06851998 0.09541467 0.014416532
0.079885066 0.021047737 -0.008019073 0.035918843 -0.052110467 0.0038355095 -0.033807404 0.037416056
-0.02540923 -0.03558072 0.03979091 -0.04281315 0.04173698 0.05616128 0.024244374 0.041453622

sequence.12.bias f4 [32]
00000000: 0f13 b13d 0e11 e5bc d011 24bd 7781 19bd
00000010: 4b53 b73c 4180 913d 3e32 b1bc 78cb 9b3d
00000020: 49e7 793d e9bb 4c3d e372 f03c 79e6 6dbd
00000030: 44b0 923c bcb0 19ba 5595 87bd 234a 8f3d
00000040: 9dfd 00bd f48d 053d cc09 d33c 4c57 a5bc
00000050: 85ba 333b db64 173d 6eaa 633c 2cb9 1ebd
00000060: 614f 0abd 7af9 c63c b10d 7abd 0597 09bd
00000070: 805e 4abd b3d3 86bb 0601 593d f58b 87bd
0.08646213 -0.027962234 -0.04005605 -0.037476983 0.022378584 0.071045406 -0.021630403 0.07607168
0.061011586 0.049983893 0.029351657 -0.058081124 0.017906316 -0.0005862822 -0.0662028 0.06996562
-0.031491864 0.03260608 0.025761507 -0.020183228 0.0027424407 0.036961418 0.013895614 -0.038750812
-0.033767108 0.024288882 -0.061048213 -0.03359129 -0.04940653 -0.004114592 0.05297949 -0.066184916

sequence.13.weight f4 [32]
00000000: baaa 783f 3d0f 7f3f 6f75 743f cbd8 7e3f
00000010: 2eff 7e3f 024c 743f 8bb4 6d3f 4c22 7f3f
00000020: abab 743f 1f8f 823f f761 823f 935e 833f
00000030: 3503 823f 51ad 843f 0ce9 7f3f 85ac 7e3f
00000040: c75f 813f a72b 7d3f d6f3 7a3f 1be1 853f
00000050: cbea 823f 9320 783f 3eca 803f cb23 843f
00000060: 34c9 853f 3ecb 803f 7394 6e3f 111a 843f
00000070: 1bb7 773f 7f8f 823f 4657 7e3f f862 7f3f
0.9713551 0.99632627 0.9549169 0.9954955 0.99608123 0.9542848 0.9285361 0.9966171
0.95574445 1.0199927 1.0186146 1.0263237 1.0157229 1.0365392 0.99964976 0.99481994
1.0107354 0.98894733 0.98028314 1.0459322 1.0227903 0.96924704 1.006172 1.0323423
1.0452027 1.0062025 0.93195266 1.0320455 0.9676377 1.0200042 0.9935192 0.9976039

sequence.13.bias f4 [32]
00000000: d537 47bd 9178 bebd 0cfb 9ebc 47c1 c0bd
00000010: 4cb2 a3bd 9f68 cebd 3591 7bbd febb d9bd
00000020: 3b8a 73bc c98d d5bc a6ec 5cbd 91ab 9cbd
00000030: f58a 19be dd6b 38bb cb91 90bd f934 46bd
00000040: 258d cc3c 804f e7bd 5408 edbd aeaa d6bc
00000050: f24b aabd 54ba aabb cde7 7abd e3f7 abbc
00000060: 1f30 3b3d 2d0c 96bc f4bf bebc 4868 45bd
00000070: 70e2 7fbd c823 21bd 5c52 7ebd a95b e3bd
-0.04863723 -0.0930034 -0.019406818 -0.09411865 -0.07992992 -0.10078549 -0.061417777 -0.1063156
-0.0148645 -0.026068585 -0.053936623 -0.07649911 -0.14994414 -0.0028140463 -0.07059058 -0.048390362
0.024969647 -0.1129446 -0.11573854 -0.026204433 -0.08315267 -0.0052102003 -0.06125622 -0.020992225
0.04570019 -0.018316353 -0.02328489 -0.048195153 -0.062471807 -0.039340764 -0.062090263 -0.11101467

sequence.13.running_mean f4 [32]
00000000: d486 1cbd 7c5e 42be c715 093d b6b3 84bf
00000010: 46e1 44bf c57b 8f3d 0c42 3fbf 4945 003f
00000020: 1b78 99bd de0b 9ebf 786d 873e 356b 8abe
00000030: e1d4 c5be 20fe 72bf 0f7f 90bf fc31 45bf
00000040: 47c6 31bf f83a 73bd 525f aebd 9e6d c1be
00000050: 2bde 99be 2edf 6d3f b024 3cbd 177d 59bf
00000060: 10fd d1be 29aa 15bf d362 debe adb5 0c3d
00000070: a01d 223e 93a3 aebf 9007 8bbe 3ebd 56be
-0.03821452 -0.18981355 0.033468034 -1.0367343 -0.7690624 0.07006029 -0.74710155 0.5010572
-0.074936114 -1.2347372 0.26450706 -0.27034917 -0.38638976 -0.94919014 -1.1288775 -0.77029395
-0.6944317 -0.05938241 -0.08514275 -0.37778944 -0.30052313 0.9291867 -0.045933425 -0.84956497
-0.41013384 -0.5846277 -0.43434772 0.034352947 0.15831614 -1.3643669 -0.27154207 -0.20970628

sequence.13.running_var f4 [32]
00000000: 0ea3 903e cd30 6a3e abed d93e c01e e93e
00000010: 2f5c 253f d07a be3e eead 0c3f 8c11 953e
00000020: 6d52 e73e 83b0 133f 468d b93e 11f2 533e
00000030: 7118 fd3e 9e65 9c3e 1584 bb3e 9396 ca3e
00000040: 1c34 0e3f 3f81 793e 5390 7c3e 835b ae3e
00000050: d00e 423e 600e e13e f3ab 533e c3f5 d83e
00000060: 598a 5c3e 9308 c53e b56b ed3e 14d4 9d3e
00000070: 3958 9d3e 8086 5c3f 1022 703e 2566 dc3e
0.282494 0.22870179 0.4256414 0.45531273 0.64593786 0.37203074 0.54952896 0.2911495
0.45180073 0.5769121 0.36240596 0.2069781 0.4943271 0.30546278 0.36624208 0.39568004
0.5554826 0.2436571 0.2466443 0.34054193 0.18950963 0.4395628 0.20671062 0.42375
0.2153715 0.38483104 0.46371236 0.30825865 0.3073137 0.8614273 0.23450494 0.4304668
