diskriminator_allcls_train70ep.pt (torch_old, 95313 bytes, 38 tensors)

fc.weight f4 [1, 16]
0	0x3f599036	0.84985673
1	0xbfb28394	-1.3946404
2	0x3f90e305	1.1319281
3	0x3f447285	0.7673724
4	0xbfd6cb11	-1.6780721
5	0x3ff83818	1.9392118
6	0x3fcaceca	1.5844357
7	0xbf5da1e3	-0.86575145
8	0xbfd889ea	-1.6917088
9	0x3fd26136	1.6435916
10	0x3fe00a2c	1.7503104
11	0x3f941620	1.1569252
12	0x3f8c617b	1.0967249
13	0x3fb2396c	1.3923774
14	0xbfedad64	-1.856854
15	0x3fd93c6e	1.6971567

fc_classif.weight f4 [9, 16]
0	0xbe447d3c	-0.19188398
1	0x3e2e6032	0.17028883
2	0xbdb8c638	-0.09022182
3	0x3d0e4b68	0.03473988
4	0xbe3aaac0	-0.18229198
5	0x3df333ec	0.11875138
6	0x3e3ebad8	0.18625963
7	0xbd9bacd0	-0.07601321
8	0xbdaf89e8	-0.085712254
9	0x3c811740	0.015758157
10	0x3e5876ae	0.21139023
11	0xbdc37880	-0.09544468
12	0xbdff279c	-0.12458727
13	0x3d25f5a8	0.04051748
14	0xbe1970b4	-0.14984399
15	0xbce5e020	-0.028060973
16	0xbe16ac48	-0.14714158
17	0xbe2f14e2	-0.1709781
18	0xbd119f00	-0.035552025
19	0x3e5ac2fc	0.21363443
20	0xbe0bacca	-0.13640133
21	0x3e10dcbe	0.14146706
22	0x3ba724c0	0.0051008165
23	0x3cd6d3d0	0.026224047
24	0xbe7c1782	-0.24618343
25	0xbcbc48e0	-0.022983968
26	0xbc72ebe0	-0.014826745
27	0xbc877e10	-0.016539603
28	0x3e129c6e	0.14317486
29	0xbd9b0d44	-0.075708896
30	0x3db7b9a0	0.08970952
31	0x3e048de0	0.12944746
32	0x3e1aaa84	0.15104109
33	0xbe26cbde	-0.16288707
34	0xbe5c6134	-0.21521455
35	0xbd3817a0	-0.044944406
36	0x3d163728	0.036673695
37	0x3da34af0	0.079732776
38	0xbe4f4f42	-0.20245078
39	0xbe39e3cc	-0.18153304
40	0x3e0d3ec2	0.13793471
41	0xbdac4260	-0.084110975
42	0xbbdad700	-0.006678462
43	0xbe00b516	-0.12569079
44	0xbe4e8946	-0.20169553
45	0x3e329800	0.17440796
46	0xbdc37aac	-0.09544882
47	0xbda63b24	-0.08116749
48	0xbe287b46	-0.16453275
49	0x3c187f00	0.009307623
50	0xbe2028d8	-0.1564058
51	0xbd8d2bbc	-0.06893107
52	0xbe27c858	-0.16385019
53	0xbe0a32e4	-0.13495976
54	0xbe773330	-0.2414062
55	0x3e2f0cba	0.17094699
56	0x3da64e8c	0.081204504
57	0xbd015150	-0.031571686
58	0x3dcb35ec	0.09922394
59	0xbe060f7e	-0.13091847
60	0x3e4cc9a2	0.19998792
61	0xbd848678	-0.064709604
62	0x3d81c564	0.063364774
63	0xbe3c1128	-0.1836592
64	0x3d599610	0.053121626
65	0x3e49f24c	0.19721335
66	0x3e077bca	0.13230816
67	0x3e091b4a	0.13389316
68	0x3dec6ec0	0.115445614
69	0x3de2e940	0.11079645
70	0xbd6a9db8	-0.05727932
71	0xbe0eacb8	-0.13933074
72	0xbe77e19c	-0.24207157
73	0x3e45f15a	0.1933035
74	0x3e38ce54	0.18047458
75	0xbe3f0c5c	-0.18657058
76	0xbcc3db60	-0.023908317
77	0x3d59d348	0.05318001
78	0xbc825560	-0.01590985
79	0x3d7a6a20	0.061136365
80	0xbe50af34	-0.20379335
81	0xbdeafda4	-0.11474159
82	0x3e5da5c0	0.2164526
83	0xbe324e9e	-0.17412803
84	0xbe549412	-0.2075961
85	0x3d8df1c4	0.06930879
86	0xbc3c5e60	-0.01149711
87	0xbdf92618	-0.12165469
88	0x3e0b0e2a	0.13579622
89	0xbe388854	-0.18020755
90	0x3d9cd150	0.07657111
91	0xbe03864e	-0.12844202
92	0x3df949c4	0.12172273
93	0x3de51b60	0.11186862
94	0xbded9304	-0.11600307
95	0x3dc9129c	0.098180026
96	0x3e0286dc	0.12746757
97	0x3e518050	0.20459104
98	0xbe46b0d2	-0.19403389
99	0x3e23146c	0.15925759
100	0xbe03ece2	-0.12883332
101	0xbd8563e8	-0.06513196
102	0xbd082030	-0.03323382
103	0x3e0b12f2	0.13581446
104	0x3e599ae0	0.21250486
105	0x3e786c7a	0.2426013
106	0x3dd712e8	0.10501653
107	0xbe4676cc	-0.19381255
108	0xbe432ed8	-0.19060838
109	0x3dd32d8c	0.10311422
110	0x3de7931c	0.11307356
111	0xbe432838	-0.19058311
112	0x3e374daa	0.1790072
113	0x3db77bd8	0.08959168
114	0x3e02f6b4	0.12789422
115	0xbd11ffd0	-0.035644352
116	0x3df1f59c	0.118144244
117	0xbdb3b370	-0.08774459
118	0x3e4444dc	0.19166893
119	0x3d908f28	0.07058555
120	0x3cf75ad0	0.03019467
121	0x3cec9490	0.028879434
122	0x3d0318c8	0.032006055
123	0x3d651228	0.05592552
124	0xbe799fa2	-0.24377301
125	0xbbb592c0	-0.0055411756
126	0xbcdf4580	-0.02725482
127	0xbe26ceb8	-0.16289794
128	0xbe46d3a4	-0.19416672
129	0x3c5d3ec0	0.01350373
130	0xbe02c1fa	-0.12769309
131	0xbe31cf18	-0.17364156
132	0xbe7e8dc0	-0.24858761
133	0xbd15e588	-0.03659585
134	0x3d249060	0.04017675
135	0xbe727816	-0.23678622
136	0x3d97bcc0	0.07409048
137	0xbb9bd840	-0.0047560036
138	0x3d5549a8	0.052072197
139	0x3dd787cc	0.10523948
140	0x3e263be2	0.16233781
141	0x3dd254b4	0.10270062
142	0xbd91ccd4	-0.07119146
143	0x3cd87320	0.026422083

sequence.0.weight f4 [8, 1, 2, 2]
0	0x3e9e5aa1	0.3092852
1	0x3ea26d60	0.31724072
2	0xbe0111a5	-0.12604387
3	0xbebf64e5	-0.37381664
4	0xbe9cb83b	-0.30609307
5	0x3e5c461e	0.21511123
6	0x3e3e5312	0.18586376
7	0xbd544b4f	-0.051829632
8	0x3d94b2d7	0.072606735
9	0x3eebb345	0.4603521
10	0x3ec350f1	0.3814769
11	0xbd5414cb	-0.051777642
12	0x3e909a83	0.28242883
13	0x3ec6cb37	0.38826916
14	0x3cc2b1ce	0.023766425
15	0x3cc7405a	0.024322677
16	0x3e9d5a75	0.30733076
17	0x3e028bca	0.12748638
18	0x3ea3e5c1	0.32011226
19	0xbeefe6fc	-0.46855915
20	0x3e949ee6	0.2902748
21	0xbdcf125f	-0.10110926
22	0x3d670490	0.056400836
23	0xbe005b9c	-0.12534946
24	0xbdca4933	-0.09877243
25	0x3d4635a8	0.048391014
26	0xbde9b5c2	-0.11411621
27	0xbeb799d6	-0.35859555
28	0xbef6bbd5	-0.4819018
29	0x3e6f13cf	0.233474
30	0xbecb49e2	-0.39704806
31	0x3ed134e7	0.40860674

sequence.0.bias f4 [8]
0	0xbee53569	-0.4476731
1	0x3d7616d7	0.060080376
2	0x3edf5425	0.43618885
3	0x3d152d51	0.03642017
4	0xbd49bd7f	-0.049252983
5	0x3efd8beb	0.4952081
6	0x3cb8d744	0.022563584
7	0xbe1bc2ce	-0.15211031

sequence.1.weight f4 [8]
0	0x3f74ee5e	0.9567622
1	0x3f8f83ae	1.121206
2	0x3f6c8e34	0.92404485
3	0x3f7bab2b	0.98308057
4	0x3f7bd1d7	0.98367065
5	0x3f82862f	1.01972
6	0x3f6a1147	0.91432613
7	0x3f6da7ab	0.92833966

sequence.1.bias f4 [8]
0	0x3b3b0520	0.002853699
1	0x3e1ea2a3	0.15491728
2	0xbe119e74	-0.14220601
3	0xbbcfd491	-0.0063424786
4	0x3cb8b188	0.022545591
5	0xbd468f9d	-0.048476804
6	0x3d03cc54	0.032177284
7	0xbb9d9e5b	-0.004810137

sequence.1.running_mean f4 [8]
0	0xbee2f920	-0.44330692
1	0x3d6f7dde	0.058469646
2	0x3ee094fb	0.43863663
3	0x3d247acb	0.040156167
4	0xbd39ef63	-0.045394313
5	0x3efeb18a	0.49744827
6	0x3cb8a301	0.022538664
7	0xbe1fb609	-0.15596785

sequence.1.running_var f4 [8]
0	0x3d53c963	0.05170573
1	0x3bff89de	0.0077984175
2	0x3f2e6699	0.681253
3	0x3ef56ebd	0.4793605
4	0x3de6939d	0.11258624
5	0x3cd17a2c	0.025570951
6	0x3e85b8d6	0.2611758
7	0x3e000c4a	0.12504688

sequence.3.weight f4 [16, 8, 2, 2]
0	0xbe1b9309	-0.15192808
1	0xbdec383e	-0.11534165
2	0xbda9bd4b	-0.08288058
3	0x3dd08f51	0.101835854
4	0x3e06417d	0.1311092
5	0x3d4c437d	0.04986905
6	0xbe19469c	-0.14968342
7	0xbe39f208	-0.18158734
8	0xbdc9c9b4	-0.09852925
9	0x3be5cd69	0.007013012
10	0x3d216260	0.03940046
11	0x3e214b9b	0.15751497
12	0xbd91cac1	-0.0711875
13	0x3c65c145	0.01402313
14	0x3da96316	0.08270852
15	0x3e43793e	0.19089219
16	0x3da47011	0.080291875
17	0xbd0137a9	-0.031547222
18	0x3cc079a6	0.023495506
19	0xbc9846fb	-0.018588534
20	0x3e31aeaa	0.17351785
21	0x3d553c23	0.052059304
22	0x3ca4f3b6	0.020135742
23	0x3ce0ea4e	0.027455475
24	0x3da739de	0.08165334
25	0x3d85af36	0.065275595
26	0xbe4db3e0	-0.20088148
27	0x3d4d7d0d	0.050168086
28	0x3d1a389d	0.037651647
29	0x3d675b40	0.056483507
30	0xbe211994	-0.15732414
31	0xbe755255	-0.23957188
32	0xbe439f32	-0.19103697
33	0xbccee4fa	-0.025255669
34	0xbcd8d313	-0.026467836
35	0xbdb9d688	-0.09074122
36	0xbddadbe3	-0.10686471
37	0xbe2d8392	-0.16944721
38	0xbd56ecf0	-0.052472055
39	0x3d1a4537	0.037663665
40	0x3d237b8d	0.03991275
41	0x3d89b876	0.06724636
42	0xbdf531cd	-0.11972389
43	0x3dd5f4f6	0.10447113
44	0x3e06371d	0.13106962
45	0x3e08a4cf	0.1334412
46	0x3d9567db	0.072951995
47	0x3cae8d97	0.02130775
48	0xbe2ac96a	-0.16678396
49	0xbdc5227b	-0.09625717
50	0x3de304e4	0.11084917
51	0xbccb174b	-0.02479138
52	0x3e17ef8a	0.1483747
53	0x3d9e9928	0.07744056
54	0xbdae0b3b	-0.08498236
55	0x3e398fdf	0.18121289
56	0xbe411a3f	-0.18857668
57	0x3d480b1f	0.04883873
58	0xbe03bce9	-0.12865032
59	0x3d3c8967	0.046029475
60	0x3e0b046d	0.13575907
61	0x3d3071d8	0.04307732
62	0xbdcbc3de	-0.09949468
63	0xbc586d75	-0.01320969
64	0x3d38614a	0.045014657
65	0xbd8f5d4d	-0.070002176
66	0xbbf17f2b	-0.007369896
67	0xbdcd5cc1	-0.10027457
68	0x3d9fa2b4	0.07794705
69	0x3e038e7a	0.12847319
70	0x3e5efbca	0.21775737
71	0x3de65638	0.11246914
72	0xbdd4131f	-0.103552096
73	0x3e00fe62	0.1259704
74	0xbd1ddb56	-0.038539253
75	0xbd801b72	-0.06255235
76	0x3e0c8946	0.1372424
77	0x3d0862e0	0.03329742
78	0x3e0cb174	0.13739568
79	0x3dd171ed	0.10226808
80	0x3deca0d5	0.11554114
81	0x3e1cc072	0.15307787
82	0x3e6a13c8	0.22859108
83	0x3e215982	0.15756801
84	0xbccb4f73	-0.024818158
85	0xbdd4483f	-0.10365342
86	0x3c918a6f	0.017766206
87	0x3e1d6bec	0.153732
88	0x3e3c47b3	0.18386726
89	0x3dee8607	0.116466574
90	0xbe0d2025	-0.13781793
91	0x3df84fcd	0.12124596
92	0x3dd5e0e2	0.104432836
93	0x3e240fca	0.16021648
94	0x3e0fc4e7	0.14039956
95	0x3de7995b	0.11308547
96	0x3e38cf69	0.1804787
97	0x3e41fd5e	0.18944308
98	0xbe099775	-0.13436683
99	0x3d6ffcbb	0.058590632
100	0xbe02bf83	-0.12768368
101	0xbdda1fec	-0.1065062
102	0x3cfbc1ee	0.030732121
103	0x3e043a50	0.1291287
104	0x3d264721	0.040595178
105	0x3d958c9d	0.073022105
106	0x3e0a09c9	0.13480295
107	0x3e626a00	0.22110748
108	0x3def1179	0.116732545
109	0x3e009ce7	0.12559853
110	0x3e07106d	0.1318986
111	0x3cf79ba2	0.030225579
112	0x3d5d66f4	0.054053262
113	0xbdb19889	-0.08671672
114	0xbcfd9234	-0.030953504
115	0xbdac30b5	-0.08407728
116	0x3d11b0a7	0.03556886
117	0xbdf67f3e	-0.12035988
118	0x3dae86bd	0.08521793
119	0xbde5c37e	-0.11218928
120	0x3db4b5c8	0.088237345
121	0x3c8fc398	0.017549321
122	0xbdca76df	-0.09885954
123	0x3e0d9109	0.13824858
124	0x3db107b0	0.086440444
125	0x3d85787b	0.065171205
126	0xbd26a695	-0.04068621
127	0xbdb35513	-0.08756461
128	0xbe0b9a4e	-0.13633081
129	0x3e4da03a	0.20080653
130	0xbd6ed819	-0.058311556
131	0x3d9fb452	0.07798065
132	0xbe14051e	-0.14455077
133	0x3d7c9daa	0.061673798
134	0xbd84ce97	-0.064847164
135	0xbd99038e	-0.07471381
136	0xbdcac83c	-0.09901473
137	0xbd592ef8	-0.05302331
138	0x3df6968d	0.12040434
139	0x3cba4d49	0.02274193
140	0xbe2a6749	-0.16640963
141	0x3cf34381	0.029695274
142	0xbda6cd27	-0.081445985
143	0x3e0d5516	0.13801989
144	0x3e1bd72f	0.15218805
145	0xbd1b7fb3	-0.03796358
146	0xbe2f51b1	-0.17121007
147	0xbe3b7f06	-0.18310174
148	0xbd113e34	-0.035459712
149	0x3e01f0bd	0.1268949
150	0x3e037aa6	0.12839755
151	0x3e174f0f	0.14776252
152	0x3b9752b5	0.0046180137
153	0x3b8259e8	0.003978003
154	0x3e287e67	0.16454469
155	0x3da6537e	0.081213936
156	0xbdb5ac8c	-0.08870801
157	0x3e2099ba	0.15683642
158	0x3d00d55f	0.031453487
159	0xbe1a618c	-0.15076274
160	0x3d930645	0.0717893
161	0xbd516d4e	-0.05112963
162	0x3ddf1876	0.108933374
163	0x3ce257e0	0.027629793
164	0x3e85e7f3	0.26153526
165	0xbdc1d11b	-0.09463712
166	0x3cbdbaaa	0.023160297
167	0x3e1dc115	0.15405686
168	0x3dc5b6ba	0.09653993
169	0x3de9af79	0.11410422
170	0xbc87762c	-0.01653584
171	0xbd0c4845	-0.03424861
172	0xbc930d3e	-0.01795065
173	0x3d0bdbb5	0.034145076
174	0xbe2394fe	-0.15974805
175	0xbe0b3c3e	-0.135972
176	0x3e00e418	0.12587011
177	0x3cbcca2b	0.02304562
178	0xbd5dce4f	-0.05415183
179	0x3dac57e8	0.08415204
180	0x3c8dea2c	0.017323576
181	0xbdd8e55e	-0.10590623
182	0x3c48bd67	0.012252188
183	0xbd0b9c50	-0.034084618
184	0xbbdcd27b	-0.0067389584
185	0x39a510e0	0.00031483825
186	0xbd747c75	-0.059689004
187	0x3ce73900	0.028225422
188	0x3e2ea96f	0.17056821
189	0x3e1a63fd	0.15077205
190	0x3d665a13	0.056238245
191	0xbe28b9a7	-0.16477071
192	0x3df7fce2	0.121087804
193	0xbe2b8c34	-0.16752702
194	0xbd287a2b	-0.041132133
195	0xbe458e52	-0.19292572
196	0x3cc781d4	0.024353899
197	0x3d8cbd0b	0.068719946
198	0xbddee72f	-0.108839385
199	0xbdd1e931	-0.10249556
200	0x3de398cd	0.11113129
201	0x3e4fd5bd	0.20296378
202	0xbe165b4d	-0.14683266
203	0x3e0255cb	0.1272804
204	0xbd3eebc6	-0.04661157
205	0xbc66aebb	-0.014079745
206	0x3d936027	0.07196074
207	0x3df144a4	0.1178067
208	0x3cd25258	0.02567403
209	0xbdb96ee8	-0.09054357
210	0xbd5d0433	-0.053959083
211	0xbca3efae	-0.02001175
212	0xbdcd883c	-0.1003575
213	0xbc9ec4eb	-0.019381007
214	0x3d99909f	0.074982874
215	0x3d5a4c23	0.053295266
216	0x3e7a1bc8	0.2442466
217	0xbd935674	-0.07194224
218	0xbdcab375	-0.0989751
219	0x3d6689b1	0.056283657
220	0xbd791db0	-0.060819328
221	0x3df36b21	0.118856676
222	0x3e094db1	0.13408543
223	0xbe0e090c	-0.13870639
224	0x3e5857f0	0.21127295
225	0xbdfb978c	-0.12284765
226	0x3e00067e	0.12502477
227	0x3cdce140	0.026962876
228	0xbe1c2e2a	-0.15251985
229	0xbd60e5a0	-0.054906487
230	0xbe12accc	-0.1432373
231	0xbe4ecbe2	-0.20194963
232	0xbc99e732	-0.018787
233	0xbdbf6d12	-0.093469754
234	0x3da4bce1	0.08043838
235	0xbde907d2	-0.11378445
236	0x3b6783e3	0.0035326413
237	0x3deb0326	0.1147521
238	0xbe07a72c	-0.13247365
239	0x3d20feec	0.039305612
240	0x3e4a9094	0.19781715
241	0x3c10ad8d	0.00883044
242	0x3ce03467	0.027368737
243	0xbdfcd881	-0.12345982
244	0x3dddce64	0.108303815
245	0xbd4c07b4	-0.049812034
246	0x3cd15749	0.025554316
247	0x3d87e667	0.06635743
248	0x3dd8525c	0.10562584
249	0x3e002513	0.12514143
250	0x3db61cfb	0.08892246
251	0x3d9e8e72	0.07742013
252	0x3d24ff7c	0.04028271
253	0xbd311f83	-0.043242943
254	0x3bc82a87	0.0061085853
255	0xbd2507b7	-0.04029056

sequence.3.bias f4 [16]
0	0x3c9ff4f7	0.019525988
1	0x3c924fa3	0.01786024
2	0xbdbedba9	-0.093192406
3	0xbd9fd947	-0.07805114
4	0xbe246e5d	-0.16057725
5	0x3d13b319	0.036059473
6	0xbe0744b0	-0.13209796
7	0x3d9a8002	0.07543947
8	0x3d66580d	0.056236316
9	0x3d997a84	0.07494071
10	0xbd2cbe7e	-0.042173855
11	0xbe016bbd	-0.12638755
12	0x3de814e1	0.11332107
13	0x3cd2338a	0.025659341
14	0x3e1e65e7	0.1546856
15	0x3e0b8fef	0.13629125

sequence.4.weight f4 [16]
0	0x3f6a6d23	0.9157278
1	0x3f7b93df	0.9827251
2	0x3f634304	0.8877413
3	0x3f816327	1.0108384
4	0x3f7d4738	0.98936796
5	0x3f7f23a9	0.9966379
6	0x3f7c6b32	0.9860107
7	0x3f6797fb	0.9046628
8	0x3f80d97d	1.0066372
9	0x3f8de2c0	1.1084824
10	0x3f8029d0	1.001276
11	0x3f89a063	1.0752071
12	0x3f7cda9b	0.98771065
13	0x3f8645ce	1.0490053
14	0x3f6f74d1	0.9353762
15	0x3f85e444	1.0460286

sequence.4.bias f4 [16]
0	0xbd94ddf7	-0.07268899
1	0x3bf3cf96	0.0074405177
2	0xbd674922	-0.05646623
3	0xbd890980	-0.06691265
4	0xbdaddd89	-0.0848952
5	0x3d3be206	0.04586985
6	0xbd2840ea	-0.041077532
7	0xbd84c856	-0.064835235
8	0xbdad6fa7	-0.084685616
9	0x3da460a7	0.080262475
10	0x3d1c1447	0.038105275
11	0xbc1c7bec	-0.00955103
12	0xbe085b20	-0.13316011
13	0x3d023856	0.031792007
14	0xbd20f2de	-0.039294116
15	0x3da9edc6	0.08297305

sequence.4.running_mean f4 [16]
0	0xbcd82602	-0.026385311
1	0xbdd0a06e	-0.101868495
2	0x3f52b236	0.8230318
3	0x3e6ade22	0.229363
4	0xbe285c7d	-0.16441531
5	0x3e9af6af	0.3026633
6	0xbe18041e	-0.1484532
7	0x3da19b8d	0.07890997
8	0x3de03091	0.10946763
9	0x3e9195e3	0.28434667
10	0xbf50b032	-0.8151885
11	0xbc2a9b34	-0.01041298
12	0x3e857f73	0.260738
13	0x3cd6ad69	0.026205735
14	0xbe92cfd5	-0.28674188
15	0x3aa37df0	0.0012473445

sequence.4.running_var f4 [16]
0	0x3e37ebb5	0.17961009
1	0x3d3a469a	0.045477487
2	0x3e9a0e57	0.30089065
3	0x3e2598ae	0.16171524
4	0x3d59e543	0.053197157
5	0x3d93be0a	0.072139814
6	0x3d243be4	0.04009618
7	0x3e646cc4	0.22307116
8	0x3da1c3cf	0.07898676
9	0x3dd6d95e	0.10490678
10	0x3ee24851	0.44195798
11	0x3e33959a	0.17537537
12	0x3d9d7851	0.07688964
13	0x3d911da3	0.07085731
14	0x3ef7df9f	0.48412797
15	0x3d428be8	0.047496706

sequence.6.weight f4 [32, 16, 2, 2]
0	0x3d81b4ad	0.06333289
1	0x3d0c5170	0.034257352
2	0x3ce5af2f	0.028037636
3	0x3d27c00d	0.04095464
4	0xbdf6b060	-0.120453596
5	0xbdb4a3d5	-0.08820311
6	0x3d7aae77	0.06120154
7	0xbcedf456	-0.029047173
8	0x3db1f849	0.08689935
9	0xbd97eca1	-0.0741818
10	0xbd7aaed1	-0.061201874
11	0x3d5e3804	0.05425264
12	0x3dacd24a	0.08438547
13	0x3d518f3e	0.051161997
14	0xbd085421	-0.033283357
15	0x3d968cb1	0.073510535
16	0xbbebf7dc	-0.007201178
17	0x3e2420ca	0.16028133
18	0xbb847084	-0.004041733
19	0x3dba3f2e	0.09094082
20	0xbe035077	-0.12823664
21	0x3dd949f8	0.106098115
22	0xbe0c22b6	-0.13685116
23	0x391a0744	0.00014689291
24	0xbc85e1e6	-0.016343068
25	0xbda1172a	-0.07865746
26	0x3ddb5496	0.10709493
27	0x3cb444e6	0.02200551
28	0x3de55f96	0.11199872
29	0xbded07e6	-0.11573772
30	0xbb77cbf6	-0.003781078
31	0x3be6fe28	0.0070493408
32	0x3d34eabe	0.04416918
33	0xbd0afb20	-0.033930898
34	0xbd8c39fe	-0.06846999
35	0x3dbefb6e	0.093253
36	0xba2870e1	-0.00064255117
37	0xbdbedf6e	-0.093199596
38	0xbe0f04d0	-0.1396668
39	0xbdfb56f8	-0.12272447
40	0xbe29b33a	-0.16572276
41	0xbe3950f3	-0.18097286
42	0xbd9e4ef9	-0.077299066
43	0x3db8d6d9	0.09025354
44	0xbe23f726	-0.16012248
45	0x3cfa5573	0.030558323
46	0x3cf5920c	0.029976867
47	0x3dd81986	0.10551743
48	0x3d1f12d9	0.038836334
49	0xbd68f3de	-0.056873195
50	0xbd25966c	-0.040426657
51	0xbc6aa0e6	-0.014320588
52	0xbdd3333e	-0.10312508
53	0xbcd2be95	-0.025725642
54	0xbd8ec859	-0.06971807
55	0xbde52844	-0.11189321
56	0xbe0c320c	-0.13690966
57	0x3d824f51	0.06362785
58	0xbe0c6c2d	-0.13713141
59	0xbda947ed	-0.08265672
60	0x3d8e59d4	0.06950727
61	0x3e13ea78	0.14444911
62	0x3cbd43bd	0.02310359
63	0x3c861f20	0.016372263
64	0x3da95fe6	0.08270244
65	0x3dd75259	0.105137534
66	0x3c49813a	0.012298876
67	0x3c565957	0.013082824
68	0xbcb7cf42	-0.022437695
69	0xbbf29943	-0.007403524
70	0x3d260fbc	0.04054235
71	0x3dd31f70	0.103087306
72	0x3d8ec608	0.06971365
73	0x3d8a74d5	0.06760565
74	0x3cc46550	0.02397409
75	0x3d2faff7	0.042892423
76	0xbdc564da	-0.096383765
77	0xbdc6404e	-0.09680234
78	0xbb399895	-0.0028319706
79	0x3bb99f29	0.0056647253
80	0xbde30582	-0.11085035
81	0xbd8091d4	-0.062778145
82	0xbd8b3aaf	-0.067983024
83	0xbb37ece0	-0.0028064772
84	0xbd379149	-0.04481629
85	0xbdb384aa	-0.08765538
86	0x3d94871c	0.072523326
87	0xbb6f8bee	-0.003655191
88	0x3db804d2	0.089852944
89	0x3d9ec2ed	0.07752023
90	0xbe1b378e	-0.15157911
91	0xbdd52f75	-0.10409442
92	0xbc167db3	-0.0091852425
93	0x3d78e3ed	0.060764242
94	0xbd9d52c0	-0.07681799
95	0xbc2e69c2	-0.010645332
96	0x3d5904d0	0.052983105
97	0x3db35b80	0.087576866
98	0x3d661416	0.0561715
99	0x3ded2d32	0.11580886
100	0xbddae102	-0.10687448
101	0xbd930304	-0.071783096
102	0xbcc18356	-0.023622196
103	0x3d5afd6d	0.053464342
104	0x3d37a0d0	0.044831097
105	0x3d6b5c44	0.05746104
106	0x3c8a68b6	0.016895633
107	0x3e0da58f	0.13832687
108	0xbd436f0b	-0.04771332
109	0x3da621d6	0.081119224
110	0x3c85394a	0.01626267
111	0xbdd404dc	-0.10352489
112	0xbd3df649	-0.046377454
113	0xbe18279d	-0.14858861
114	0xbdd006e8	-0.10157567
115	0x3cd3c685	0.025851497
116	0x3e0148a6	0.1262537
117	0x3d66f5f5	0.056386907
118	0x3b10a5c7	0.0022071467
119	0x3e18b525	0.14912851
120	0x3d6f39ea	0.05840484
121	0xbe113856	-0.14181647
122	0xbd9fcad3	-0.078023575
123	0xbd902942	-0.07039119
124	0x3b6f1337	0.0036479959
125	0xbcf2b2a7	-0.029626204
126	0x3d2b77fb	0.04186247
127	0x3d257b61	0.040400866
128	0x3d3c9d91	0.046048705
129	0xbd9dce84	-0.07705405
130	0x3cbc3ce5	0.022978256
131	0xbda553a9	-0.080725975
132	0xbdcaa54d	-0.0989481
133	0x3d2f4898	0.04279384
134	0x3c89c53c	0.016817681
135	0x3da8e089	0.08245952
136	0xbd84e257	-0.064884834
137	0xbd162ea0	-0.03666556
138	0xbdee9efa	-0.11651416
139	0x3c5c62ed	0.01345132
140	0x3dc4dc3b	0.09612318
141	0x3e2bfc8d	0.16795559
142	0x3d8300b8	0.063966215
143	0xbb8de4b8	-0.004330244
144	0x3bb7a829	0.005604763
145	0x3d76bb4b	0.06023721
146	0xbd850336	-0.06494753
147	0x3e0b9729	0.13631882
148	0xbded3847	-0.11583
149	0xbdfdef68	-0.12399179
150	0xbcfda86c	-0.030964099
151	0xbe1889c8	-0.1489631
152	0xbd10ecd8	-0.03538212
153	0x3d6cad16	0.057782255
154	0xbde63fcd	-0.11242638
155	0xbd8e6b16	-0.06954019
156	0x3da4d479	0.080483384
157	0x3def911e	0.11697601
158	0x3cbf7256	0.02336995
159	0x3dc74839	0.09730572
160	0x3bef2395	0.007297943
161	0x3e08461a	0.13307992
162	0x3dfc273d	0.123121716
163	0x3bcaf93f	0.006194263
164	0xbddc0cc4	-0.10744622
165	0xbd39d7fe	-0.045372
166	0x3ae5d742	0.0017535465
167	0x3def034a	0.11670549
168	0x3d06c952	0.032906838
169	0x3baa666e	0.005200199
170	0x3da6439d	0.08118365
171	0xbd1d5810	-0.03841406
172	0xbdb64392	-0.08899607
173	0x3d5bdddc	0.05367838
174	0x3c7fdee7	0.015617109
175	0xbd842a96	-0.06453435
176	0x3ce80e5d	0.028327161
177	0xbcfe2070	-0.031021327
178	0x3cf6cbfe	0.030126568
179	0xbdc14c92	-0.09438433
180	0x3dc620e8	0.09674245
181	0x3df06274	0.117375284
182	0x3dc7afd7	0.09750336
183	0xbbb412e9	-0.0054954183
184	0xbdd57899	-0.10423393
185	0x3c6b418e	0.014358891
186	0xbc1585be	-0.009126125
187	0x3d2adea5	0.041716237
188	0x3e022597	0.12709652
189	0xbdb2f9d3	-0.087390564
190	0xbda966ab	-0.082715355
191	0xbe0caba5	-0.13737352
192	0x3dbb7222	0.091526285
193	0xbd8d20ce	-0.068910226
194	0xbd8f1533	-0.06986465
195	0xbc93bbd2	-0.018033896
196	0x3deb1dee	0.11480318
197	0xbe0ae70f	-0.13564704
198	0xbd959494	-0.0730373
199	0xbd323fbc	-0.043517813
200	0x3de1f150	0.11032355
201	0xbcb68ab4	-0.022282936
202	0x3dc30c6f	0.09523856
203	0x3d69c109	0.05706886
204	0x3d61d701	0.055136684
205	0x3dca914b	0.09890994
206	0xbd252a70	-0.040323675
207	0xbdac5bf6	-0.08415978
208	0xbdf0e944	-0.11763242
209	0xbd5dc248	-0.05414036
210	0xbd955bad	-0.072928764
211	0x3d180d3e	0.037122004
212	0xbe1bd025	-0.1521612
213	0xbe0dbf5b	-0.13842528
214	0xbd90766f	-0.070538394
215	0xbd1f860b	-0.038946193
216	0xbb9454f6	-0.0045267297
217	0xbbfa7016	-0.007642756
218	0x3da84a43	0.08217289
219	0xbd79ddb7	-0.06100246
220	0xbe0c4cd5	-0.13701184
221	0xbccb6c4a	-0.02483191
222	0xbd08be3f	-0.033384558
223	0xbe2c606c	-0.16833657
224	0xbd94a0f4	-0.07257262
225	0x3b5b3458	0.0033447947
226	0xbd28cad4	-0.041209057
227	0x3e133f98	0.14379728
228	0x3e0dce41	0.13848211
229	0xbca3551d	-0.019938046
230	0xbd3460c6	-0.044037603
231	0x3dd2d06b	0.10293659
232	0x3c3c28f2	0.0114843715
233	0x3d690aae	0.05689495
234	0xbddb49c3	-0.10707428
235	0x3def01d0	0.116702676
236	0x3e6865ae	0.22695038
237	0x3e4bf829	0.19918884
238	0x3d154d52	0.03645069
239	0xbd0a74e6	-0.03380289
240	0x3dc07828	0.09397918
241	0x3d9f2634	0.077709585
242	0x3dc0f223	0.09421184
243	0x3d3699e6	0.044580363
244	0xbdceddb7	-0.101008825
245	0xbd3d5289	-0.04622129
246	0x3dfd3f88	0.12365633
247	0xbdc01507	-0.09379011
248	0x3dddb6a5	0.10825852
249	0x3dc71b2a	0.09721978
250	0x3d9983d7	0.074958496
251	0x3c5a0835	0.013307621
252	0xbdc4157c	-0.0957441
253	0xbd92d4bd	-0.07169483
254	0x3d06ccd7	0.032910194
255	0x3c4e4a88	0.012591012

sequence.6.bias f4 [32]
0	0x3c30bfa5	0.010787879
1	0x3bd6aa45	0.0065510594
2	0x3d41df2b	0.04733197
3	0xbdf994ca	-0.121865824
4	0xbcb77a2e	-0.022397127
5	0xbd01a5e8	-0.03165236
6	0xbd985e7e	-0.07439898
7	0xbdd83b74	-0.10558215
8	0xbdc1c67b	-0.09461685
9	0x3d8e52e8	0.06949407
10	0x3d37e2f0	0.04489416
11	0x3e0481fe	0.12940213
12	0xbcca9acb	-0.024732014
13	0x3d758ad6	0.059946857
14	0x3cdbf4ae	0.02685007
15	0x3cc5e9b2	0.024159286
16	0xbde1ac58	-0.110192
17	0x3de7bb63	0.11315038
18	0xbc371828	-0.011175193
19	0xbd092074	-0.033478215
20	0xbd049b4d	-0.03237467
21	0xbd8def18	-0.06930369
22	0xbd2bcfc4	-0.041946188
23	0x3dfa2866	0.12214737
24	0xbd3ef532	-0.046620555
25	0xbdf8eef8	-0.12154955
26	0x3d3c0e6c	0.04591219
27	0x3d938d47	0.07204681
28	0x3d879cd7	0.06621712
29	0x3d411d38	0.047147006
30	0x3ddab2c8	0.10678631
31	0xbc0cb593	-0.008588213

sequence.7.weight f4 [32]
0	0x3f75319b	0.95778817
1	0x3f83acd4	1.0287118
2	0x3f6af5e7	0.9178147
3	0x3f863f01	1.0487977
4	0x3f87a929	1.0598499
5	0x3f6a9e19	0.9164749
6	0x3f7faed4	0.9987614
7	0x3f86728f	1.050371
8	0x3f845bf6	1.0340564
9	0x3f7dd1af	0.99148077
10	0x3f87f642	1.0622027
11	0x3f867d85	1.0507056
12	0x3f71b242	0.94412625
13	0x3f81921f	1.0122718
14	0x3f8124c0	1.008934
15	0x3f82ee4e	1.0228975
16	0x3f801f56	1.0009563
17	0x3f6b0035	0.9179719
18	0x3f74dc44	0.956486
19	0x3f84628f	1.0342578
20	0x3f737fa4	0.9511664
21	0x3f803ff8	1.0019522
22	0x3f73834e	0.9512223
23	0x3f671777	0.9027018
24	0x3f75d0d5	0.9602178
25	0x3f760305	0.9609836
26	0x3f6b2abc	0.9186208
27	0x3f83d193	1.0298332
28	0x3f7d13d4	0.9885838
29	0x3f761ee5	0.9614089
30	0x3f765d31	0.9623595
31	0x3f7d0e34	0.988498

sequence.7.bias f4 [32]
0	0xbdfc2202	-0.12311174
1	0x3b882dfa	0.0041558715
2	0xbc937f03	-0.0180049
3	0xbe194d9b	-0.1497101
4	0xbe0b6830	-0.13613963
5	0xbc1142ff	-0.008866071
6	0xbded8e2f	-0.11599385
7	0xbd441437	-0.04787084
8	0xbd87a2e4	-0.06622866
9	0xbe0ecfc1	-0.1394644
10	0x3da8f9d4	0.08250776
11	0xbdd686cd	-0.1047493
12	0xbe3e6d0f	-0.1859629
13	0xbd8c2eaa	-0.06844838
14	0xbcbcea88	-0.023061052
15	0xbda9f9d2	-0.082996026
16	0xbdc4087e	-0.09571932
17	0xbe582037	-0.21106039
18	0xbe26b050	-0.16278195
19	0xbe44694f	-0.19180797
20	0xbcf5dd76	-0.030012827
21	0xbdb55f90	-0.08856118
22	0xbe2f90bd	-0.17145057
23	0xbdeb161d	-0.11478827
24	0xbdeb3309	-0.114843436
25	0xbc7762ca	-0.015099237
26	0xbe238c92	-0.15971592
27	0xbdbb2dab	-0.0913957
28	0xbd71fdc4	-0.0590799
29	0xbdcd522a	-0.10025437
30	0xbdb588a4	-0.08863953
31	0xbe088804	-0.13333136

sequence.7.running_mean f4 [32]
0	0xbea9fcde	-0.33200735
1	0x3da0e894	0.07856861
2	0x3d8a44f7	0.06751435
3	0xbd29e114	-0.041474417
4	0x3e1b35b4	0.15157205
5	0xbef7b1a6	-0.48377723
6	0xbea0a7a6	-0.31377906
7	0xbd926e43	-0.07149937
8	0x3e07cfa3	0.13262801
9	0x3ecc9e13	0.3996435
10	0xbef03ea4	-0.4692279
11	0x3e11f0b4	0.14251977
12	0x3f1e03b5	0.61724406
13	0x3ea49beb	0.32150206
14	0x3cace4b3	0.021105146
15	0x3f0244bf	0.5088615
16	0xbda5acde	-0.080896124
17	0x3db57a91	0.08861268
18	0x3c319b46	0.010840243
19	0xbe4702cf	-0.19434665
20	0xbedaadc5	-0.427107
21	0xbeb392f4	-0.35073054
22	0xbe14fcbb	-0.14549534
23	0x3e884444	0.26614583
24	0x3c838ff2	0.01605985
25	0xbf1f4c4c	-0.62225795
26	0xbe9b3845	-0.30316368
27	0x3e90529e	0.28188032
28	0xbd4edce7	-0.050503638
29	0x3f0cfc2e	0.55072296
30	0x3f339d45	0.7016185
31	0x3e515622	0.20443013

sequence.7.running_var f4 [32]
0	0x3de4426c	0.111454815
1	0x3dc1ed37	0.09469073
2	0x3e6c6eaa	0.2308909
3	0x3e257006	0.16156015
4	0x3e6e2f88	0.23260319
5	0x3f23b957	0.6395468
6	0x3dc982ac	0.09839377
7	0x3e3ccdec	0.18437928
8	0x3e38301e	0.17987105
9	0x3e1fc67e	0.15603063
10	0x3e1d9e0d	0.15392323
11	0x3e03dfc9	0.12878336
12	0x3e980a75	0.29695478
13	0x3e17f1fb	0.14838402
14	0x3e0261b9	0.1273259
15	0x3eaf0a42	0.34187514
16	0x3e349f7c	0.17638963
17	0x3dfa62ff	0.12225913
18	0x3e11d644	0.14241892
19	0x3e17e114	0.14831954
20	0x3e09e699	0.13466872
21	0x3e90a0fc	0.2824782
22	0x3e1ebafb	0.15501015
23	0x3e073d05	0.13206871
24	0x3e4a39d0	0.19748616
25	0x3e82574c	0.25457227
26	0x3dd39d90	0.10332787
27	0x3e735bf1	0.23765542
28	0x3e3c95db	0.1841654
29	0x3e57bd70	0.21068358
30	0x3e2c430f	0.16822456
31	0x3e11b6dd	0.14229913

sequence.9.weight f4 [64, 32, 2, 2]
0	0x3d922f19	0.071378894
1	0xbab1a6b2	-0.0013553707
2	0x3c8d12a2	0.017220799
3	0x3d0bff57	0.034179058
4	0xbd3aaffb	-0.045577984
5	0xbd579d0c	-0.052640006
6	0x3c69e4dc	0.014275756
7	0xbd8acb9b	-0.06777116
8	0xbb7adc68	-0.0038278345
9	0xbd38ac6f	-0.04508632
10	0xbdad5be8	-0.08464795
11	0xbd648a12	-0.055795737
12	0x3c6d57d4	0.014486272
13	0x3cd1ad65	0.025595376
14	0x3d655ce8	0.055996805
15	0x3c58eb99	0.013239765
16	0x3c339a3c	0.010962065
17	0x3d6caa3a	0.05777953
18	0x3d83dd35	0.06438676
19	0x3d85917f	0.06521892
20	0x3d1954e5	0.037434477
21	0x3bec146a	0.007204582
22	0x3d3c0921	0.045907144
23	0xbd359d31	-0.044339363
24	0x3d371b1b	0.044703584
25	0x3c97feaa	0.01855405
26	0x3dc9d7bb	0.098556004
27	0x3bdccaa3	0.0067380234
28	0x3dc2a8cb	0.09504851
29	0x3c4fe94d	0.012689901
30	0x3de01587	0.10941606
31	0x3d8464c0	0.06464529
32	0x3d9dc98b	0.07704457
33	0x3d75dcd5	0.060025055
34	0x3d9f5f2c	0.077818245
35	0x3d1c9aa3	0.03823341
36	0x3d04cf53	0.032424282
37	0x3c5bde6b	0.013419728
38	0x3e193e52	0.1496518
39	0x3dceec51	0.101036675
40	0xbd0853ff	-0.03328323
41	0x3d7fe015	0.06246956
42	0x3d2fd5ba	0.042928435
43	0xbd021947	-0.031762388
44	0xbc2f34db	-0.010693754
45	0xbd2f5c4d	-0.042812634
46	0x3d90086a	0.07032855
47	0x3cfc6dcf	0.03081408
48	0x3d105501	0.035237316
49	0x3d2992a3	0.04139961
50	0xbcb92ee5	-0.022605369
51	0x3d74bc75	0.05975004
52	0xbc19c2e1	-0.009384842
53	0x3d0f162f	0.034933265
54	0xbd38a67b	-0.045080643
55	0xbd29b886	-0.04143574
56	0x3d8a42cc	0.06751022
57	0x3cc1e1fc	0.023667328
58	0x3d534e85	0.051588554
59	0xbd6082c6	-0.054812215
60	0xbc03ee90	-0.008052483
61	0xbd17b8f5	-0.037041623
62	0x3c659569	0.014012673
63	0x3dfb6736	0.12275545
64	0xbdc93f64	-0.09826544
65	0xbdd25a8a	-0.10271175
66	0x3d8189de	0.06325124
67	0x3d5edd21	0.054410104
68	0x3c0dfa35	0.008665611
69	0x3cace026	0.021102976
70	0xbbdd9184	-0.0067617316
71	0x3c02238b	0.007943044
72	0x3dcc6db9	0.099818654
73	0xbc811bb9	-0.01576029
74	0xbd0353b7	-0.03206226
75	0xbcb7871b	-0.02240329
76	0xbc06ca28	-0.008226909
77	0x3dce8c4d	0.10085354
78	0x3dd154b4	0.10221234
79	0x3e026607	0.12734233
80	0x3de06737	0.10957187
81	0xbd1e2d4a	-0.03861741
82	0x3dc074c7	0.093972735
83	0xbcc00acc	-0.023442648
84	0xbd3b305c	-0.045700416
85	0x3c90f202	0.017693523
86	0x3cc0fdb9	0.023558484
87	0xbd0626bc	-0.032751784
88	0x3c519127	0.012790955
89	0xbc55232b	-0.013008873
90	0x3dcf3067	0.10116654
91	0xbb41a9cc	-0.002955067
92	0xbd4a789a	-0.04943142
93	0xbd3134e4	-0.04326333
94	0x3d1640d2	0.03668291
95	0xbd0fed6c	-0.035138533
96	0x3c0f51ad	0.0087475
97	0x3b54f881	0.0032496753
98	0x3dbbe29f	0.09174084
99	0x3d9c41e8	0.07629758
100	0xbd11beb3	-0.035582256
101	0x3d49cd11	0.049267832
102	0xbcbab685	-0.02279211
103	0x3b830705	0.0039986395
104	0x3dedaf8d	0.11605749
105	0xbd5f3366	-0.054492377
106	0xbb33086f	-0.002731826
107	0x3d450834	0.048103526
108	0xbcacec4f	-0.021108774
109	0x3cc519e7	0.024060203
110	0xbc817faf	-0.015807955
111	0xbd8fb2e6	-0.07016544
112	0xbe46a9b5	-0.19400676
113	0xbd2827a1	-0.041053418
114	0xbd1bbe7e	-0.038023464
115	0x3d988715	0.0744764
116	0xbc6a80c3	-0.014312926
117	0x3d0ae6d6	0.03391155
118	0xba8279b5	-0.0009954484
119	0x3daa3d79	0.08312506
120	0x3d5faa2d	0.05460565
121	0xbca6dab9	-0.020367967
122	0xbd0f8e0d	-0.03504758
123	0x3c8b258c	0.016985677
124	0xbd2ebb12	-0.042658873
125	0xbd75830f	-0.05993944
126	0x3e0eb84f	0.13937496
127	0x3ddbb9c9	0.10728795
128	0xbc1f7528	-0.009732522
129	0xbc3364dd	-0.010949341
130	0x3c9e38a5	0.01931412
131	0xbcbe4e35	-0.023230651
132	0x3d3a56fa	0.045493104
133	0x3d962949	0.07332093
134	0xbd7247ea	-0.059150614
135	0x3c9dab82	0.01924682
136	0x3d8347fe	0.06410216
137	0x3badaad5	0.005299906
138	0x3ca544ee	0.02017447
139	0xbd6aa07f	-0.057281967
140	0x3d521656	0.051290832
141	0xbba983ed	-0.0051731975
142	0x3dfc6ee6	0.1232584
143	0x3dad4128	0.08459693
144	0xbda0515b	-0.07828017
145	0xbe2bb802	-0.16769412
146	0x3da2f2c0	0.07956457
147	0xbcb5f371	-0.022210808
148	0x3dab3ae7	0.08360844
149	0x3c3d71b4	0.0115627535
150	0x3d7badab	0.06144492
151	0x3d58dd7e	0.052945606
152	0xbc6807be	-0.014162002
153	0x3c79ccde	0.015246598
154	0xbcef082b	-0.0291787
155	0xbd16ed06	-0.036847137
156	0x3cf35c5b	0.029707124
157	0x3c4b32a5	0.012402211
158	0xbd3ef192	-0.0466171
159	0x3d9d2b4f	0.07674276
160	0xbd4b5798	-0.049644083
161	0xbe09f5b4	-0.13472635
162	0xbd0b072d	-0.03394239
163	0x3d529999	0.051416013
164	0xbd589058	-0.052872032
165	0xbd205c95	-0.039150793
166	0xbc1449a6	-0.009050762
167	0x3c654cfb	0.013995404
168	0x3d72bc17	0.059261408
169	0x3e04cad2	0.12967995
170	0x3ca77533	0.020441627
171	0x3de421a2	0.111392274
172	0x3dfd22cd	0.12360153
173	0x3d606dab	0.054792088
174	0xbcecfc43	-0.028928882
175	0x3db56ffa	0.088592485
176	0x3d78299c	0.060586557
177	0x3d89f39a	0.067359164
178	0x3d1fe540	0.03903699
179	0x3c64208d	0.013923776
180	0xbdc57f3c	-0.09643409
181	0xbd683073	-0.05668683
182	0x3da321b7	0.07965415
183	0x3dcd8e6d	0.10036931
184	0x3e2ee5f1	0.17079903
185	0x3ce76cff	0.028250216
186	0xbd86d504	-0.06583598
187	0xbcc44c77	-0.023962243
188	0xbd345d56	-0.044034325
189	0xbcb86ca8	-0.022512749
190	0xbd11ae07	-0.035566356
191	0x3cf86fbb	0.030326715
192	0xbdb5d49f	-0.08878445
193	0xbca6cb5b	-0.02036064
194	0xbd153cb5	-0.036434848
195	0x3c8e10f5	0.01734207
196	0x3e1488f0	0.14505363
197	0x3dc2bb1e	0.09508346
198	0x3d30bf33	0.04315109
199	0x3d14ff40	0.036376238
200	0x3d91ab5f	0.071127646
201	0x3c897c45	0.01678289
202	0xbd84e771	-0.064894564
203	0x3d1b6fe4	0.037948504
204	0x3cc82990	0.024433881
205	0x3d9082d7	0.07056206
206	0xbce5e411	-0.028062852
207	0x3d4ec615	0.050481874
208	0x3c73fb50	0.014891461
209	0x3cbcab0b	0.023030778
210	0xbd2f6e93	-0.04283006
211	0xbdcae651	-0.099072106
212	0xbd33c23e	-0.043886416
213	0x3b2e0394	0.0026552426
214	0x3dcb43c9	0.09925038
215	0x3d3419b2	0.043969817
216	0x3d226768	0.039649397
217	0x3dbf9fc4	0.09356645
218	0x3b2794a7	0.0025570781
219	0xbd4f69af	-0.050637897
220	0x3c3773e0	0.01119706
221	0xbc3f1504	-0.011662725
222	0x3dd0b894	0.101914555
223	0x3c412e4c	0.011790823
224	0xbca50e85	-0.020148525
225	0xbd9e2ce0	-0.07723403
226	0x3d151754	0.0363992
227	0x3d34c395	0.044131834
228	0x3d6fc6fc	0.058539376
229	0x3cae3984	0.02126766
230	0x3cac4f0c	0.021033786
231	0xbd13ccbe	-0.03608393
232	0xbcfbff08	-0.030761257
233	0x3d57956b	0.05263273
234	0xbd732cdd	-0.059368957
235	0x3ba5f627	0.005064744
236	0x3d0e4731	0.034735862
237	0x3dcc4ab2	0.099751845
238	0x3dd33a88	0.10313898
239	0x3c98c74a	0.018649716
240	0x3c9dc567	0.019259168
241	0xbd4355f9	-0.04768941
242	0xbd6ef8e1	-0.05834282
243	0xbb48191e	-0.003053255
244	0xbd0cdc63	-0.034389865
245	0xbd35d513	-0.044392657
246	0xbcb5851a	-0.022158194
247	0xbd715a74	-0.058924153
248	0xbdaada28	-0.08342391
249	0xbd7125bc	-0.058873877
250	0xbc8d4eed	-0.017249549
251	0x3d583022	0.052780278
252	0xbd7069b0	-0.05869454
253	0xbc7156dc	-0.014730182
254	0xbd9af1fb	-0.07565685
255	0xbc6a7c0f	-0.014311804

sequence.9.bias f4 [64]
0	0xbd16e048	-0.036834985
1	0xbd1ce783	-0.038306724
2	0xbcabd771	-0.020976754
3	0x3bc09f03	0.0058783307
4	0x3d8a7bc5	0.067618884
5	0xbd0541ac	-0.032533333
6	0xbd345f4e	-0.044036202
7	0xbd66a7ab	-0.056312244
8	0x3d94cdad	0.07265792
9	0xbd8ecace	-0.06972276
10	0x3d36ab57	0.044596996
11	0xbbffac77	-0.007802542
12	0xbd2e0d9b	-0.042493444
13	0x3d908992	0.070574895
14	0x3daeb1c5	0.085300006
15	0x3db3fe67	0.08788758
16	0xbd6881c1	-0.056764368
17	0xbc2e59fd	-0.010641572
18	0x3d394b0f	0.045237597
19	0x3c5f7b0a	0.013640175
20	0xbd4109a2	-0.047128327
21	0xbd484f18	-0.048903555
22	0xbd8bd443	-0.06827595
23	0x3d8a14d5	0.06742255
24	0x3cf4b5ad	0.029871786
25	0x3c70830d	0.014679682
26	0xbd9af645	-0.075665034
27	0xbc5c0ff7	-0.013431541
28	0xbd824c5e	-0.06362222
29	0x3d50040b	0.050785106
30	0xbca16fb5	-0.019706586
31	0x3d13844e	0.036014847
32	0xbced67ef	-0.028980223
33	0x3d255951	0.040368382
34	0x3d054c08	0.032543212
35	0xbd62e340	-0.055392504
36	0x3d385aae	0.045008354
37	0x3d8716d9	0.06596155
38	0xbcd4fcb6	-0.025999408
39	0x3c33265d	0.0109344395
40	0xbb869392	-0.004106947
41	0xbda9d917	-0.0829336
42	0x3d07d004	0.033157364
43	0x3db17a13	0.08665862
44	0x3db92752	0.09040703
45	0xbd43f8bf	-0.047844645
46	0x3d92bec5	0.07165293
47	0x3cb24580	0.021761656
48	0xbcdc7ec8	-0.026915923
49	0x3d31ef46	0.04344108
50	0xbd260b01	-0.040537838
51	0xbcefbafe	-0.02926397
52	0xbb45b4fa	-0.0030167685
53	0xbd65bac2	-0.05608631
54	0xbd6eb65e	-0.058279388
55	0xbc0f7d2c	-0.008757871
56	0xbd1c3132	-0.038132854
57	0x3bd73962	0.00656812
58	0x3cde230a	0.027116317
59	0x3d0bf8c8	0.034172803
60	0xbdb8130c	-0.08988008
61	0xbcc436d9	-0.023951935
62	0x3d7171c3	0.058946382
63	0x3bab3ebc	0.0052259844

sequence.10.weight f4 [64]
0	0x3f7b9b26	0.9828361
1	0x3f84d4f9	1.0377494
2	0x3f888a2e	1.0667169
3	0x3f80d249	1.0064174
4	0x3f8bd475	1.0924212
5	0x3f79ac13	0.9752819
6	0x3f7e5ce8	0.99360514
7	0x3f6e65a6	0.93123853
8	0x3f851747	1.0397729
9	0x3f6e03a7	0.92974323
10	0x3f79a982	0.97524273
11	0x3f753eda	0.9579903
12	0x3f6bc452	0.92096436
13	0x3f6d9f66	0.9282135
14	0x3f7d734d	0.9900406
15	0x3f82fc75	1.0233294
16	0x3f74face	0.956952
17	0x3f81a50b	1.0128492
18	0x3f62f5b9	0.88656193
19	0x3f61cb2d	0.88200647
20	0x3f7c12ba	0.98466074
21	0x3f8231b0	1.0171413
22	0x3f588e85	0.8459247
23	0x3f752831	0.9576445
24	0x3f690b8a	0.9103323
25	0x3f8689d8	1.0510817
26	0x3f899a3e	1.0750196
27	0x3f649fd9	0.8930641
28	0x3f80edb3	1.007254
29	0x3f8f6d03	1.1205143
30	0x3f732b93	0.94988364
31	0x3f72d7c3	0.94860476
32	0x3f509dfb	0.8149106
33	0x3f8071ac	1.003469
34	0x3f6fca33	0.93667907
35	0x3f76a45c	0.9634454
36	0x3f71454b	0.9424636
37	0x3f62de31	0.8862029
38	0x3f863d56	1.0487468
39	0x3f6f9cce	0.9359864
40	0x3f81b417	1.0133084
41	0x3f7fb54e	0.99886024
42	0x3f754cb1	0.95820147
43	0x3f70d1a0	0.9406986
44	0x3f803ac1	1.001793
45	0x3f8d5fa7	1.1044816
46	0x3f70dbc7	0.94085354
47	0x3f7039c4	0.93838143
48	0x3f81fffe	1.0156248
49	0x3f859905	1.0437323
50	0x3f823843	1.017342
51	0x3f8448fd	1.0334774
52	0x3f63ffa2	0.8906194
53	0x3f797255	0.9744008
54	0x3f64d9d3	0.89394873
55	0x3f78748d	0.9705284
56	0x3f807297	1.003497
57	0x3f7dac52	0.99091065
58	0x3f878ea0	1.0590401
59	0x3f7df5e5	0.9920333
60	0x3f8336db	1.0251116
61	0x3f87c3e9	1.0606662
62	0x3f6fa8c4	0.9361689
63	0x3f737458	0.950994

sequence.10.bias f4 [64]
0	0xbe046055	-0.12927373
1	0xbe9a521c	-0.3014077
2	0xbe9e9a47	-0.3097708
3	0xbe72b34d	-0.2370121
4	0xbeec31e6	-0.4613182
5	0xbe8d4ab2	-0.2759605
6	0xbe2839e8	-0.1642834
7	0xbe30a3eb	-0.1725003
8	0xbe71d590	-0.23616624
9	0xbc9a6583	-0.018847233
10	0x3d022960	0.03177774
11	0xbe30955b	-0.17244475
12	0xbc2d2d05	-0.0105698155
13	0xbe4f131f	-0.20222138
14	0xbe29f8e1	-0.16598846
15	0xbeaa1c1a	-0.33224565
16	0xbe40ea73	-0.18839435
17	0xbe49db44	-0.1971255
18	0xbd1c4760	-0.038154006
19	0xbe2e82bf	-0.17042063
20	0xbe67781f	-0.22604416
21	0xbe7d45b2	-0.24733618
22	0xbe466cee	-0.19377491
23	0xbe124012	-0.14282253
24	0xbe118e71	-0.14214493
25	0xbebb0e1d	-0.36534205
26	0xbd6f57b5	-0.058433253
27	0xbe75f0e3	-0.24017672
28	0xbe751fd7	-0.23937927
29	0xbe45c038	-0.19311607
30	0xbe9c5e95	-0.3054091
31	0xbe3abece	-0.18236849
32	0xbe77948e	-0.24177763
33	0xbe377e23	-0.17919211
34	0x3bcde3b0	0.006283246
35	0xbe88763e	-0.26652712
36	0xbe579c99	-0.21055831
37	0xbe4975f1	-0.19673897
38	0xbe413855	-0.18869145
39	0xbe8896ad	-0.26677456
40	0xbe8d5e29	-0.276109
41	0xbe2389d8	-0.15970552
42	0x3d4044ab	0.046940487
43	0x3d564863	0.052315127
44	0xba545c01	-0.0008100868
45	0xbe18c4f5	-0.14918883
46	0xbe9954ff	-0.2994766
47	0xbe465d5e	-0.19371554
48	0xbe9c70d1	-0.30554822
49	0xbe21ce41	-0.15801336
50	0x3d4c4867	0.049873736
51	0xbe4b9b89	-0.1988355
52	0xbe25500e	-0.1614382
53	0xbdc139d1	-0.09434856
54	0xbe7833b5	-0.24238475
55	0xbe56a71f	-0.20962189
56	0xbe8f1161	-0.27942947
57	0xbe299ac4	-0.16562945
58	0x3d9671da	0.07345934
59	0xbe8ac093	-0.27100047
60	0x3da50e71	0.08059395
61	0xbea9b3a0	-0.33144855
62	0x3d0d0915	0.03443249
63	0xbe384dbc	-0.17998403

sequence.10.running_mean f4 [64]
0	0x3f14e623	0.5816366
1	0x3edbc2c2	0.42922026
2	0x3ed634af	0.4183707
3	0x3e9f20a7	0.310796
4	0x3f26f128	0.65211725
5	0x3efce305	0.49391952
6	0xbe400604	-0.18752295
7	0x3e6e621e	0.23279616
8	0x3e08543a	0.1331338
9	0xbedb2a51	-0.42805722
10	0x3dafd2b1	0.08585108
11	0xbe439614	-0.19100219
12	0xbe773c4a	-0.24144092
13	0x3e7db7c1	0.24777128
14	0x3f53dcb5	0.8275865
15	0x3ef5181a	0.4786995
16	0xbc293203	-0.010326865
17	0x3e79e135	0.24402316
18	0xbdf6d6a1	-0.12052656
19	0x3de292f0	0.11063182
20	0x3d86df27	0.06585532
21	0x3f577caf	0.8417463
22	0x3eb2b4ce	0.34903568
23	0xbeda96e7	-0.42693254
24	0x3f38358b	0.719567
25	0x3f06bb8a	0.5262991
26	0xbd8edb2d	-0.06975398
27	0x3df2f103	0.118623756
28	0x3df40c90	0.119164586
29	0x3e854101	0.26026157
30	0x3ec5af24	0.38610184
31	0x3f1d661c	0.6148393
32	0x3e89c75a	0.26909906
33	0x3ef02897	0.46905968
34	0xbf05edbe	-0.5231589
35	0x3da0c68a	0.07850368
36	0x3eb0042f	0.34378192
37	0x3db524ce	0.088449106
38	0x3f1dd348	0.61650515
39	0x3ed96676	0.42460984
40	0xbe3922cf	-0.18079685
41	0xbc62aa89	-0.013834604
42	0xbf4b3f30	-0.7939329
43	0xbf666e24	-0.9001181
44	0xbe6447f6	-0.22293076
45	0xbdf38004	-0.118896514
46	0x3e0a765e	0.13521716
47	0x3e4d4866	0.20047149
48	0x3e4bda74	0.19907552
49	0x3f3ecf73	0.7453529
50	0xbf02812a	-0.5097834
51	0x3ee93d81	0.45554736
52	0xbd786fca	-0.060653485
53	0x3f2aaa5d	0.66666204
54	0xbe79cf9e	-0.24395606
55	0xbe682370	-0.22669768
56	0x3e91ba75	0.28462568
57	0x3ea6e44b	0.3259605
58	0xbef4ef87	-0.47838995
59	0x3f062b7d	0.5241011
60	0xbf92fa51	-1.148264
61	0xbdd75c39	-0.10515637
62	0xbde1401c	-0.10998556
63	0x3f6a7af5	0.9159387

sequence.10.running_var f4 [64]
0	0x3f074f7d	0.52855664
1	0x3e5ff29f	0.21869896
2	0x3e19c14a	0.1501514
3	0x3ebe1679	0.3712652
4	0x3e939c17	0.28830025
5	0x3ea62e50	0.3245721
6	0x3e87b7ce	0.2650742
7	0x3e0e8403	0.13917546
8	0x3e1dac62	0.1539779
9	0x3e60d2d9	0.21955432
10	0x3e1ddc14	0.15415984
11	0x3ee97388	0.45595956
12	0x3ee46d0b	0.44614443
13	0x3e371be9	0.1788174
14	0x3ebf86fa	0.37407666
15	0x3e949611	0.29020742
16	0x3e79adeb	0.2438275
17	0x3e10a783	0.141264
18	0x3e331730	0.17489314
19	0x3e8eb178	0.27869773
20	0x3e2f45e1	0.171165
21	0x3f0b7bf3	0.54486006
22	0x3e9046bc	0.28178966
23	0x3f31a583	0.69393176
24	0x3ef430de	0.47693533
25	0x3e6eff94	0.23339683
26	0x3e3a6021	0.18200733
27	0x3e511625	0.20418604
28	0x3e2b7bd6	0.16746458
29	0x3e1fd803	0.15609746
30	0x3e59f695	0.2128547
31	0x3ecc81a2	0.39942652
32	0x3ecf6b78	0.4051168
33	0x3e5332fa	0.20624915
34	0x3f084419	0.5322891
35	0x3e8c5548	0.27408814
36	0x3e265f39	0.16247262
37	0x3e1b5172	0.15167788
38	0x3f0da175	0.5532449
39	0x3e050f06	0.12994012
40	0x3e9e1960	0.30878735
41	0x3e3dad2f	0.18523096
42	0x3f8793bf	1.0591964
43	0x3f0f10df	0.5588512
44	0x3eb0221a	0.34401017
45	0x3db2b6ef	0.08726298
46	0x3e265ed1	0.16247107
47	0x3e4fbea6	0.2028757
48	0x3e1682e0	0.14698362
49	0x3f1528d2	0.5826541
50	0x3f33ddf2	0.70260537
51	0x3ebcf0d7	0.36902496
52	0x3e598f97	0.21246181
53	0x3f677996	0.904199
54	0x3e35f465	0.1776901
55	0x3e6e3cfc	0.23265451
56	0x3e404e43	0.18779854
57	0x3e297dea	0.16551939
58	0x3e93e30f	0.2888417
59	0x3e859117	0.26087257
60	0x3f0d0003	0.5507814
61	0x3e8ad57f	0.2711601
62	0x3dfc1b69	0.123099156
63	0x3f1971b6	0.59939134

sequence.12.weight f4 [32, 64, 2, 2]
0	0xbcba66d2	-0.022754107
1	0xbca77ff5	-0.020446757
2	0xbd944be9	-0.07241041
3	0x3c53e3e6	0.012932753
4	0xbdc2dc89	-0.0951472
5	0xbd9d9fa8	-0.07696468
6	0x3d091b3e	0.033473246
7	0xbd3afdfa	-0.045652367
8	0xbd9e920b	-0.07742699
9	0xbd42bcb2	-0.047543235
10	0xbd11adbe	-0.035566084
11	0x3c9c927e	0.019112822
12	0x3cde0c0b	0.027105352
13	0xbcf05d91	-0.029341491
14	0x3d41e85d	0.04734074
15	0x3d51db7d	0.05123471
16	0x3bed841f	0.007248416
17	0xbd58a066	-0.052887343
18	0xbc06d24e	-0.0082288515
19	0x3d8b8580	0.068125725
20	0x3c960c50	0.018316418
21	0x3daf2a1d	0.08552954
22	0xbd99bbac	-0.07506499
23	0xbb50bc42	-0.0031850492
24	0xbd0d6271	-0.03451771
25	0xbd6c1a51	-0.057642285
26	0x3d88043c	0.06641433
27	0x3cb391c9	0.021920102
28	0xbd3546c7	-0.04425695
29	0xbca43f72	-0.020049784
30	0xbd832247	-0.06403022
31	0xbd2725ed	-0.040807653
32	0x3d285742	0.04109884
33	0x3dac2e27	0.0840724
34	0x3cbec1aa	0.023285706
35	0xbc8b08fb	-0.016972056
36	0x3c75c839	0.01500135
37	0xbd8bed84	-0.06832412
38	0xbb4535a9	-0.0030091798
39	0x3cab6b14	0.020925082
40	0xbd173383	-0.03691436
41	0x3c10e30c	0.008843195
42	0xbccfac6a	-0.025350768
43	0xbd82f4b2	-0.06394328
44	0x3c3598bc	0.011083778
45	0x3d284f10	0.041091025
46	0xbd50c2a1	-0.050966863
47	0xbda555b5	-0.08072988
48	0xbdda2f2d	-0.10653529
49	0xbe0c0ba3	-0.13676314
50	0xbd1447c9	-0.036201272
51	0xbd26b2bb	-0.040697794
52	0xbcb2839b	-0.02179127
53	0xbc27b7a2	-0.010236653
54	0xbd43a134	-0.047761157
55	0xbcc8032e	-0.024415579
56	0xbbdae838	-0.0066805147
57	0x3d9d2530	0.076731086
58	0x3db7009c	0.08935663
59	0xbc4a2072	-0.012336837
60	0x3d6695a4	0.056295052
61	0x3cea8cb1	0.02863154
62	0xbc4a3ea0	-0.0123440325
63	0xbc653cd5	-0.013991554
64	0xbd9e8a20	-0.07741189
65	0xbd36ebea	-0.04465858
66	0xbdb58f7f	-0.0886526
67	0xbdcb5c05	-0.09929661
68	0x3d27c499	0.040958975
69	0x3bdc4870	0.0067225024
70	0xbd60ce43	-0.054884207
71	0x3c928e0f	0.017890004
72	0xbd12a8db	-0.035805564
73	0xbdb347ae	-0.08753906
74	0x3d11dbbe	0.035609953
75	0x3cd59e03	0.026076322
76	0x3d6c2f4e	0.0576623
77	0x3d58a994	0.052896097
78	0x3d45de02	0.048307426
79	0x3cd5097f	0.026005505
80	0xbcb68de4	-0.022284456
81	0xbbba7ed2	-0.0056913877
82	0xbc9b0a1f	-0.018925725
83	0xbd52246c	-0.051304266
84	0xbb76db49	-0.0037667325
85	0x3cbcb294	0.023034371
86	0x3d0b0c55	0.033947308
87	0xbc7d3f46	-0.01545698
88	0xbdbf6d85	-0.09347061
89	0xbdc874a6	-0.09787874
90	0xbc9c1e16	-0.019057315
91	0x3cb652fd	0.022256369
92	0xbdb26262	-0.08710171
93	0xbd6bd27e	-0.057573788
94	0xbd2ba32b	-0.041903656
95	0xbccf1528	-0.025278643
96	0xbbb35657	-0.005472939
97	0x3d06aa27	0.032877114
98	0x3c9f4d61	0.019446077
99	0xbb2d6abd	-0.0026461326
100	0x3d4a483c	0.049385294
101	0xbc745538	-0.014912896
102	0xbc559d20	-0.01303795
103	0x3d1f8310	0.03894335
104	0x3dad7550	0.08469641
105	0x3deaa0ee	0.11456476
106	0xbd807d7e	-0.06273936
107	0xbd958fd0	-0.07302821
108	0xbdad7308	-0.08469206
109	0xbda5858c	-0.08082113
110	0xbc9a9baf	-0.018873064
111	0x3d459a56	0.04824289
112	0x3d5c794e	0.053826623
113	0x3d222251	0.039583508
114	0xbc0e30d7	-0.0086786365
115	0x3d1ab905	0.037774105
116	0x3deff6cd	0.117169954
117	0x3e0b8d26	0.13628063
118	0x3c2fe4ec	0.010735732
119	0xb9ca076a	-0.00038533966
120	0x3bdbd39e	0.0067085763
121	0x3d8bec05	0.068321265
122	0x3b43b7e2	0.0029864241
123	0xba094885	-0.00052369415
124	0x3c85b5b2	0.01632199
125	0xbd5f5dc0	-0.054532766
126	0x3d07f40f	0.033191737
127	0x3d0f038a	0.034915484
128	0xbc7f7574	-0.015591968
129	0x3b76159d	0.0037549504
130	0xbc9da671	-0.019244405
131	0xbc2d9063	-0.0105935065
132	0x3d086090	0.033295214
133	0x3bdfa15b	0.006824655
134	0xbc1b0a41	-0.009462894
135	0x3c5f8ac8	0.013643928
136	0xbd0d3105	-0.034470577
137	0x3cb6ed8b	0.022330066
138	0xbbd64dd1	-0.006540038
139	0xbdbf786c	-0.093491405
140	0x3c30bcf7	0.01078724
141	0xbb0ffc1c	-0.0021970337
142	0x3cc15516	0.023600142
143	0x3c449d58	0.012000404
144	0xbb4978a5	-0.0030742076
145	0x3c9e104f	0.019294886
146	0x3d052c6a	0.03251306
147	0xbb9f5c98	-0.004863333
148	0x3d92d9c9	0.071704455
149	0x3c9ef0c6	0.01940192
150	0xbce7905d	-0.02826708
151	0xbcd32097	-0.025772376
152	0x3d87efb7	0.06637519
153	0x3c4e5662	0.012593837
154	0x3cee46ea	0.029086549
155	0x3b1da9f0	0.002405759
156	0x3da11993	0.07866206
157	0x3d869b41	0.06572581
158	0x3c179bca	0.009253452
159	0xbd88deba	-0.06683107
160	0x3cf0a8a2	0.029377285
161	0x3ca340a2	0.01992828
162	0x3c4b04d0	0.012391284
163	0x3d419d50	0.047269166
164	0xbca58a82	-0.020207647
165	0x3c89db21	0.016828122
166	0xbcf35b13	-0.029706514
167	0x3d89a566	0.067210004
168	0xbd176b84	-0.03696777
169	0x3d7f3594	0.062306955
170	0xbcda5444	-0.02665151
171	0xbd56b12a	-0.05241505
172	0xbd247983	-0.040154945
173	0xbb8a43fe	-0.004219531
174	0xbd5fc590	-0.05463177
175	0x3d6d6818	0.0579606
176	0x3d9c161d	0.07621405
177	0x3d305c0f	0.043056544
178	0x3c6eb782	0.014570119
179	0xbd08100f	-0.03321844
180	0x3d930d60	0.071802855
181	0x3d9a4250	0.07532179
182	0xbdbc6d02	-0.09200479
183	0xbce18eaa	-0.027533848
184	0xbc98b976	-0.018643122
185	0xbc95affb	-0.01827239
186	0xbd17a5ce	-0.037023358
187	0xbd4ee2e6	-0.050509356
188	0xbd122ec7	-0.03568914
189	0xbd66a429	-0.0563089
190	0x3d01a859	0.03165469
191	0xbd18ab71	-0.037272874
192	0x3d77fa57	0.060541477
193	0xbd71e95a	-0.059060432
194	0xbd0889c4	-0.03333451
195	0x3cb4e981	0.022084
196	0x3bb59922	0.0055419365
197	0xbd4b0fb6	-0.04957553
198	0x3d609b78	0.054835767
199	0x3c4b1e8a	0.012397418
200	0x3b251f1c	0.0025195545
201	0x3cf9c573	0.030489659
202	0xbd89e5ab	-0.06733259
203	0xbd19b0a2	-0.037521966
204	0x3d9d011f	0.076662295
205	0x3ca774c4	0.02044142
206	0xbc00e217	-0.007866404
207	0x3d38153e	0.044942133
208	0x3dbc0059	0.09179754
209	0x3dd2d41a	0.102943614
210	0xbd0266d3	-0.031836342
211	0xbcb9db30	-0.022687525
212	0xbcb8aefa	-0.022544373
213	0x3c98d6eb	0.018657168
214	0xbc5614b1	-0.013066457
215	0x3cad5236	0.021157365
216	0xbbf613c5	-0.007509681
217	0x3bf89bc0	0.007586926
218	0x3d1d49a2	0.0384003
219	0xbc1cacf6	-0.0095627215
220	0xbd5921df	-0.053010818
221	0x3ca07b27	0.019589974
222	0xbdc5291a	-0.0962698
223	0xbd459637	-0.04823896
224	0xbdb3a964	-0.08772543
225	0xbda2d6d2	-0.0795113
226	0xbbc51092	-0.006013938
227	0xbcbeed52	-0.023306523
228	0xbc7e14ed	-0.015507919
229	0x3ccc5596	0.024943154
230	0x3d0b2b7e	0.033977024
231	0x3caf95b8	0.021433696
232	0x3d991914	0.074754864
233	0x3cbed693	0.023295676
234	0xbd77b2de	-0.060473315
235	0xbd3da5f3	-0.04630084
236	0xbd18e59d	-0.03732835
237	0xbd2b58b2	-0.041832633
238	0xbd06bc8b	-0.032894652
239	0xbd11daa2	-0.035608895
240	0xbcc25ec0	-0.023726821
241	0x3b9ae627	0.0047271433
242	0xbb862998	-0.004094314
243	0x3b690329	0.0035554862
244	0x3d98d862	0.07463147
245	0x3cb5ae32	0.02217779
246	0xbda1efff	-0.07907104
247	0x3ca0af3b	0.019614806
248	0xbccb003b	-0.024780383
249	0xbd1d80a1	-0.03845275
250	0xb9c29c3e	-0.00037118973
251	0xbd6cf6c1	-0.05785251
252	0x3d616d31	0.055035774
253	0x3d461840	0.04836297
254	0xbcdc2ca2	-0.026876751
255	0x3cd21d0e	0.02564862

sequence.12.bias f4 [32]
0	0xbc3e3229	-0.011608639
1	0xbce9f7cb	-0.02856054
2	0xbd1797be	-0.037009947
3	0x3c7745ee	0.015092356
4	0xbcdc8387	-0.026918186
5	0xbcff2986	-0.03114773
6	0xbc2460ab	-0.010032813
7	0xbc47064e	-0.012147499
8	0x3c8a4427	0.0168782
9	0x3d245188	0.040116817
10	0x3d84aa17	0.064777546
11	0xbbca8bec	-0.006181231
12	0xbbb2bc0e	-0.005454547
13	0xbbeb79ef	-0.0071861665
14	0xbce15244	-0.027505048
15	0xbd22d154	-0.039750412
16	0x3d3c5351	0.045977894
17	0x3ce3d506	0.027811538
18	0xbaad62a4	-0.001322825
19	0x3ca00e6f	0.019538132
20	0xbd32b959	-0.043633793
21	0xbc132a14	-0.0089822
22	0xbcb84c1f	-0.022497235
23	0x3cf3a76c	0.029742919
24	0x3c89b8d8	0.016811773
25	0xbc886323	-0.016648835
26	0xbcb122d1	-0.021623047
27	0xbce86eaa	-0.028373081
28	0x3d41339c	0.04716836
29	0xbd3ba70a	-0.045813598
30	0x3c361713	0.0111139
31	0x3d3908c0	0.04517436

sequence.13.weight f4 [32]
0	0x3f62b5ad	0.88558465
1	0x3f68b27a	0.90897334
2	0x3f669fba	0.90087473
3	0x3f73f984	0.95302606
4	0x3f810686	1.0080116
5	0x3f7f5a4a	0.99747145
6	0x3f6052c9	0.8762632
7	0x3f9166df	1.1359519
8	0x3f757146	0.95875967
9	0x3f8a3f6d	1.0800606
10	0x3f6dfe00	0.929657
11	0x3f6928d7	0.9107794
12	0x3f72e893	0.9488613
13	0x3f6f00fd	0.93360883
14	0x3f72a560	0.9478359
15	0x3f610967	0.8790497
16	0x3f582972	0.8443824
17	0x3f6d1e1e	0.9262408
18	0x3f838f55	1.0278116
19	0x3fa15212	1.2603171
20	0x3f715221	0.94265944
21	0x3f7c8965	0.9864715
22	0x3f76c11b	0.96388406
23	0x3f8220bb	1.0166239
24	0x3f6a2caf	0.9147443
25	0x3f616389	0.88042504
26	0x3f6ca5e9	0.9244066
27	0x3f92d438	1.1471014
28	0x3f6e61ac	0.93117785
29	0x3f7732a9	0.96561676
30	0x3f868c10	1.0511494
31	0x3f7c1e10	0.9848337

sequence.13.bias f4 [32]
0	0xbe3accd9	-0.18242206
1	0xbebee688	-0.37285256
2	0xbe132be5	-0.14372213
3	0xbca06fc1	-0.019584538
4	0xbe33f643	-0.1757441
5	0xbd056610	-0.032568038
6	0xbe6e977a	-0.23299971
7	0xbdd4e63c	-0.10395476
8	0xbe04d723	-0.12972693
9	0xbd90c899	-0.07069511
10	0xbd9ab75b	-0.075545035
11	0x3d424436	0.047428332
12	0xbe8617ff	-0.26190183
13	0xbe5647ac	-0.20925778
14	0xbd75a23c	-0.059969172
15	0xbf3aeac0	-0.7301445
16	0x3e276180	0.16345787
17	0xbd5c7530	-0.053822696
18	0xbe62214f	-0.22083019
19	0xbd51f6d6	-0.05126079
20	0xbbf3769b	-0.0074299104
21	0xbe7a1f53	-0.24426012
22	0xbd39ac30	-0.045330226
23	0xbe48246e	-0.19545147
24	0x3e2063d2	0.15663078
25	0xbe4cf378	-0.20014751
26	0xbead5e87	-0.3386118
27	0x3d2b5e51	0.041837994
28	0xbe3d3924	-0.18478829
29	0xbe80df83	-0.25170526
30	0xbe5c9811	-0.21542384
31	0xbe5cae23	-0.21550803
