model_best.pt (torch_old, 95237 bytes, 38 tensors)

fc.weight f4 [9, 16]
-0.801908 0.66392404 -1.1661326 -0.010908879 0.3310418 0.00021467904 -0.9760769 0.5507216
-1.2293252 0.33826178 0.41731814 -1.0058948 0.26259187 -0.7717569 0.4679819 -0.9513357
-1.0628775 0.50349915 0.15506239 -1.0570982 -0.8460033 0.45790395 0.38947144 -1.1017714
0.59841955 0.17004071 -0.96511763 -0.97831786 -0.7971409 0.682605 0.56227404 -0.95362574
0.05934854 0.0945243 0.26295227 0.47937855 -0.3674348 0.5618769 -0.39225164 -0.6717196
-1.1983184 0.6629752 -0.67625344 0.7460223 -0.6854154 -0.7493992 -0.6929389 -0.884671
-0.14752504 0.5663411 0.47363192 -0.2730839 -0.6961448 -0.76629674 -0.869741 -0.13385625
0.5234055 -0.84460956 -0.24339707 0.69810677 -0.0699081 -0.95146096 -0.9072026 0.6292206
0.15491322 -0.8491255 -0.922228 -0.56873137 0.6064228 -1.355412 0.21178143 0.31149322
0.66659766 -1.205755 0.74625593 -0.2710508 0.10593006 -0.4248769 -0.40002382 -0.3628011
-0.3855757 -0.7908733 -1.1184064 -0.44855618 -0.7785249 -1.0295643 -0.8394906 -0.31410685
-0.7659575 -0.61253244 -0.5964987 0.4955419 0.77179986 0.7815265 0.78132606 0.46126577
0.7883354 -0.78372884 0.30688772 0.7250068 -0.18558785 -0.49975976 0.6445116 -1.1424172
0.055232324 -0.7766951 -0.427946 -0.9084364 -0.42134458 0.31823125 -0.8669676 0.30376405
-0.22695777 -0.6338459 0.64523435 -0.79988885 0.4226241 -0.11206943 -0.08514233 0.25209033
-0.011637069 0.38980758 0.36026934 -0.18628007 -1.1771413 -0.71776766 -0.5990479 -0.6278104
-0.45108747 -0.08222981 -0.25869796 0.39516014 -0.22142877 0.06378408 0.30469328 0.07841734
-0.64624906 -0.24431786 -0.6199613 0.16403022 0.20404713 0.06875891 0.27310753 -0.08099366
00000000: d849 4dbf edf6 293f d543 95bf 28bb 32bc
00000010: 507e a93e 771b 6139 2de0 79bf 17fc 0c3f
00000020: 875a 9dbf a630 ad3e b9aa d53e 29c1 80bf
00000030: 7172 863e dc91 45bf 539b ef3e bd8a 73bf
00000040: 5f0c 88bf 52e5 003f adc8 1e3e fe4e 87bf
00000050: ac93 58bf 6372 ea3e cd68 c73e d806 8dbf
00000060: 0632 193f 271f 2e3e f311 77bf 0a73 7abf
00000070: 6d11 4cbf 34bf 2e3f 31f1 0f3f d120 74bf
00000080: 7417 733d f595 c13d aea1 863e 1b71 f53e
00000090: 6a20 bcbe 2ad7 0f3f 35d5 c8be d1f5 2bbf
000000a0: 7f62 99bf beb8 293f f21e 2dbf 51fb 3e3f
000000b0: 6277 2fbf a0d8 3fbf 7264 31bf cc79 62bf
000000c0: ce10 17be bbfb 103f e27f f23e a7d1 8bbe
000000d0: 8c36 32bf 062c 44bf 59a7 5ebf 9d11 09be
000000e0: e7fd 053f 5538 58bf 153d 79be 20b7 323f
000000f0: fa2b 8fbd f292 73bf 6e3e 68bf 9a14 213f
00000100: 92a1 1e3e 4a60 59bf 2217 6cbf 6198 11bf
00000110: 863e 1b3f 247e adbf 3bdd 583e 0a7c 9f3e
00000120: 25a6 2a3f 2e56 9abf a10a 3f3f 2cc7 8abe
00000130: dcf1 d83d 7789 d9be eccf ccbe 11c1 b9be
00000140: 2e6a c5be ac76 4abf f127 8fbf 28a9 e5be
00000150: 684d 47bf c3c8 83bf dbe8 56bf 9dd2 a0be
00000160: ca15 44bf edce 1cbf 24b4 18bf abb7 fd3e
00000170: ad94 453f 1f12 483f fc04 483f 072b ec3e
00000180: 59d0 493f 74a2 48bf 6320 9d3e 0c9a 393f
00000190: be0a 3ebe 83e0 ffbe b6fe 243f ba3a 92bf
000001a0: 4a3b 623d 7dd5 46bf bd1b dbbe 4a8f 68bf
000001b0: 7aba d7be 35ef a23e 97f1 5dbf f686 9b3e
000001c0: 9e67 68be ba43 22bf 142e 253f 84c5 4cbf
000001d0: 3062 d83e a884 e5bd 1a5f aebd fc11 813e
000001e0: 68a9 3ebc dc94 c73e 3975 b83e 34c0 3ebe
000001f0: 91ac 96bf 9fbf 37bf 345b 19bf 2fb8 20bf
00000200: f0f4 e6be 1a68 a8bd 0f74 84be 6e52 ca3e
00000210: 39be 62be 3aa1 823d c200 9c3e 4599 a03d
00000220: 9470 25bf 762e 7abe c9b5 1ebf 8af7 273e
00000230: bbf1 503e 79d1 8c3d c0d4 8b3e 01e0 a5bd

fc.bias f4 [9]
0.18818752 -0.05107643 -0.0054475917 -0.10653756 0.07395275 0.18007891 0.0062318034 0.10689247
-0.28953746
00000000: 3bb4 403e 8535 51bd b681 b2bb 5d30 dabd
00000010: 8a74 973d 9b66 383e 2834 cc3b 70ea da3d
00000020: 413e 94be

sequence.0.weight f4 [8, 1, 2, 2]
-0.21438655 -0.01804862 0.30412441 0.22109666 0.31851062 0.05678116 -0.40805185 -0.29413873
0.5638696 -0.093005046 -0.054748654 0.13290735 -0.2523102 0.014594332 0.1563282 0.039407197
-0.00982307 -0.20200905 -0.3890141 0.15205275 0.3715146 -0.4177095 0.4039395 -0.3499841
0.5082274 -0.4453728 -0.05376761 -0.18366088 0.31112933 -0.23030218 0.21960743 0.12768868
00000000: 2688 5bbe b3da 93bc 32b6 9b3e 2a67 623e
00000010: d313 a33e 5d93 683d 2cec d0be 5a99 96be
00000020: c259 103f 6e79 bebd 2040 60bd dd18 083e
00000030: cd2e 81be 111d 6f3c 8014 203e 7169 213d
00000040: f1f0 20bc 76db 4ebe db2c c7be b7b3 1b3e
00000050: 2937 be3e 05de d5be 28d1 ce3e 1e31 b3be
00000060: 311b 023f e707 e4be 6d3b 5cbd 9911 3cbe
00000070: 584c 9f3e 56d4 6bbe c5e0 603e d2c0 023e

sequence.0.bias f4 [8]
0.20656738 0.4378261 0.2119398 0.3843732 0.484786 -0.32260212 0.36506346 0.3322943
00000000: 6686 533e be2a e03e bf06 593e 90cc c43e
00000010: df35 f83e 1b2c a5be 99e9 ba3e 7a22 aa3e

sequence.1.weight f4 [8]
0.9928843 0.93636 0.9680423 1.045899 0.97591317 1.1214384 0.9546114 0.9883951
00000000: aa2d 7e3f 4ab5 6f3f 9fd1 773f 05e0 853f
00000010: 72d5 793f 4b8b 8f3f 6a61 743f 7607 7d3f

sequence.1.bias f4 [8]
0.0673831 0.0741304 0.03166503 0.16723938 0.023368897 -0.045046184 -0.051543985 -0.036407415
00000000: 2700 8a3d aed1 973d 31b3 013d cd40 2b3e
00000010: 2170 bf3c 5982 38bd c91f 53bd f11f 15bd

sequence.1.running_mean f4 [8]
-12.183776 14.543789 -22.953121 2.0192215 19.561062 -0.5422878 7.8595767 -17.817238
00000000: bff0 42c1 5cb3 6841 fe9f b7c1 ed3a 0140
00000010: 0e7d 9c41 60d3 0abf a781 fb40 b489 8ec1

sequence.1.running_var f4 [8]
24.369883 35.416363 67.70687 2.1036305 45.301945 8.690861 12.473046 42.717194
00000000: 85f5 c241 5baa 0d42 eb69 8742 e2a1 0640
00000010: 3135 3542 c40d 0b41 9991 4741 68de 2a42

sequence.3.weight f4 [16, 8, 2, 2]
0.11382583 0.1785046 0.09294923 0.08732742 0.095292754 0.11653792 0.112936005 -0.09803101
0.12235701 0.035588115 -0.07444296 0.14530414 -0.048306998 0.15613484 -0.038787834 -0.0671546
0.1427 -0.034838215 0.035455715 -0.06996002 -0.038417533 0.09786127 0.16186503 0.24436921
0.09993559 0.15457109 0.05996276 0.16108222 -0.048348468 0.2048514 0.10145236 0.08858636
0.15188481 -0.05732228 -0.14962845 0.117234774 -0.052412067 0.06146799 0.0539353 0.06414823
-0.081344195 -0.13017179 -0.13103501 -0.10466906 0.062673874 0.07038179 -0.023893585 -0.14471048
-0.015001331 -0.19571641 0.14138682 0.048910387 -0.00079125114 -0.09849014 -0.10373375 -0.20996837
-0.04830809 -0.03231589 0.1690704 -0.0696542 0.17112789 0.08493528 0.12649749 -0.0023329603
0.03934557 -0.21810758 0.114422135 -0.003921463 -0.0049164216 0.01831463 -0.18844403 0.055419594
-0.13591552 -0.087713756 -0.044115826 -0.13732879 0.16305852 0.06689218 -0.024142038 0.16161999
0.14656751 -0.07320733 0.09980103 0.110485524 -0.15914668 -0.10953762 0.11034075 -0.13725191
0.122194186 -0.055700246 -0.14279328 0.019169005 0.044457264 -0.23232675 -0.07869742 -0.054298803
-0.10399604 -0.20877296 -0.21231654 0.030785775 0.0150434775 -0.012989968 -0.056412235 -0.009071647
0.008137501 0.070460886 -0.07869617 0.058180828 -0.25889337 -0.071050406 0.034297448 -0.11082119
0.11288762 -0.10884999 0.13810714 0.10766359 -0.048795875 -0.11949326 -0.049836203 0.05967665
0.03135793 0.029533695 -0.018754326 0.026691578 0.16089298 -0.13479865 -0.18380362 -0.1313978
-0.124434955 -0.041143484 -0.1066104 0.04936289 0.18347664 0.09467886 0.06880827 -0.15978947
-0.067254186 -0.09656006 0.1671339 -0.10350176 -0.14756668 -0.17805755 0.09499429 -0.037871737
-0.121180184 0.15145826 -0.043368556 -0.12800264 -0.04626145 0.050696816 0.053145304 0.0040131775
0.16321638 0.11654471 0.03790687 0.0030062266 -0.19439936 -0.17346787 0.17875203 0.020234818
0.0657046 -0.12040399 0.11629855 -0.050385457 -0.048275806 0.02289153 -0.029694453 -0.054572824
-0.09176582 0.023889823 0.043959014 0.13558903 -0.05658878 0.09341263 0.1060896 -0.012573299
0.13125068 0.05774146 -0.09189929 0.03250004 -0.108979516 -0.22541887 -0.1962938 -0.12285433
0.1453839 0.19841677 -0.089938864 0.09670305 0.15859573 0.043067273 -0.14270353 0.03711895
-0.0011259117 -0.19831046 0.18901394 -0.09217588 -0.041003123 -0.057608645 -0.10127599 -0.13551487
0.19207574 0.092825934 0.15630901 -0.11098572 -0.15927665 -0.08378235 0.21784765 0.19434991
0.045233503 -0.06918858 -0.042312548 0.14123738 -0.14681436 -0.1158706 0.060640983 -0.025226012
0.098759405 0.09382376 0.020976631 0.0876819 -0.034960486 -0.060595132 -0.040192317 0.118654154
-0.09724223 -0.077322505 0.10835267 -0.0038338914 -0.10472896 -0.0015735035 0.042061973 -0.16474472
-0.19909914 0.07986796 0.05230899 0.09708069 -0.06298583 -0.011929325 -0.07785471 0.005629943
0.16345371 -0.11107073 -0.070644155 -0.08153008 -0.06673767 -0.14824615 -0.024744762 -0.16709551
0.12505019 0.13953821 -0.18461664 0.07664032 -0.10104981 0.07996006 0.17007817 0.15635322
00000000: 841d e93d e9c9 363e 2a5c be3d b8d8 b23d
00000010: d928 c33d 6fab ee3d fe4a e73d 7bc4 c8bd
00000020: 5096 fa3d d8c4 113d 8d75 98bd 9cca 143e
00000030: 8fdd 45bd d0e1 1f3e fedf 1ebd 5a88 89bd
00000040: f31f 123e 84b2 0ebd 033a 113d 3347 8fbd
00000050: b45b 1dbd 7d6b c83d f2bf 253e ec3b 7a3e
00000060: 08ab cc3d e247 1e3e 839b 753d bdf2 243e
00000070: 0b09 46bd 91c4 513e 41c6 cf3d c46c b53d
00000080: b187 1b3e c4ca 6abd 3338 19be c918 f03d
00000090: 09ae 56bd dcc5 7b3d 43eb 5c3d 2660 833d
000000a0: c997 a6bd c14b 05be 0b2e 06be bb5c d6bd
000000b0: 295b 803d 5424 903d 7bbc c3bc fc2e 14be
000000c0: 25c8 75bc e269 48be b5c7 103e 4256 483d
000000d0: f76b 4fba 33b5 c9bd 5c72 d4bd f301 57be
000000e0: b4de 45bd ab5d 04bd ca20 2d3e dca6 8ebd
000000f0: 263c 2f3e 8cf2 ad3d 8f88 013e 94e4 18bb
00000100: d228 213d 9857 5fbe 2756 ea3d 9e7f 80bb
00000110: ef19 a1bb 9008 963c 79f7 40be a8ff 623d
00000120: 702d 0bbe 45a3 b3bd ccb2 34bd eb9f 0cbe
00000130: d0f8 263e c4fe 883d 86c5 c5bc b67f 253e
00000140: cb15 163e baed 95bd 7b64 cc3d 3c46 e23d
00000150: 59f7 22be 4255 e0bd 55fa e13d c48b 0cbe
00000160: f240 fa3d f125 64bd 6738 12be 5108 9d3c
00000170: d218 363d 10e7 6dbe 1d2c a1bd 6c68 5ebd
00000180: e0fb d4bd 94c8 55be 8269 59be 7332 fc3c
00000190: eb78 763c e0d3 54bc 8410 67bd 3fa1 14bc
000001a0: 2753 053c cc4d 903d 752b a1bd 054f 6e3d
000001b0: ac8d 84be e082 91bd 7b7b 0c3d 38f6 e2bd
000001c0: a031 e73d beec debd f56b 0d3e ba7e dc3d
000001d0: 2fde 47bd e2b8 f4bd 0c21 4cbd 816f 743d
000001e0: 2c71 003d a6f0 f13c aca2 99bc 4ca8 da3c
000001f0: 21c1 243e a808 0abe 0437 3cbe 258d 06be
00000200: c1d7 febd 1286 28bd 8e56 dabd be30 4a3d
00000210: 4de1 3b3e fde6 c13d 5aeb 8c3d da9f 23be
00000220: 90bc 89bd 48c1 c5bd 2625 2b3e bbf8 d3bd
00000230: b81b 17be b854 36be 5e8c c23d 651f 1bbd
00000240: 512d f8bd e017 1b3e 3aa3 31bd 2013 03be
00000250: a57c 3dbd 77a7 4f3d e4ae 593d f980 833b
00000260: 3222 273e feae ee3d 3c44 1b3d 1d04 453b
00000270: a010 47be 90a1 31be c60a 373e 7dc3 a53c
00000280: 2290 863d 5e96 f6bd ef2d ee3d fb60 4ebd
00000290: dabc 45bd 0587 bb3c c841 f3bc c187 5fbd
000002a0: b8ef bbbd 97b4 c33c 5e0e 343d dad7 0a3e
000002b0: a3c9 67bd 1f4f bf3d 8145 d93d 3d00 4ebc
000002c0: 9466 063e 4f82 6c3d b235 bcbd c31e 053d
000002d0: a730 dfbd 34d4 66be 3e01 49be 0d9b fbbd
000002e0: 84df 143e c42d 4b3e de31 b8bd 400c c63d
000002f0: eb66 223e 4f67 303d e020 12be 0a0a 183d
00000300: 5493 93ba e611 4bbe df8c 413e b5c6 bcbd
00000310: e4f2 27bd 0bf7 6bbd c969 cfbd 69c4 0abe
00000320: 81af 443e 861b be3d 780f 203e 7b4c e3bd
00000330: 6b19 23be 1596 abbd 7413 5f3e aa03 473e
00000340: c446 393d beb2 8dbd ec4f 2dbd 88a0 103e
00000350: 8156 16be 914d edbd ae62 783d c8a6 cebc
00000360: 5f42 ca3d ac26 c03d 2fd7 ab3c 9192 b33d
00000370: ba32 0fbd 9a32 78bd b3a0 24bd f300 f33d
00000380: ef26 c7bd 435b 9ebd 01e8 dd3d 0642 7bbb
00000390: 237c d6bd 043e ceba 2d49 2c3d d7b2 28be
000003a0: a5e0 4bbe d091 a33d f441 563d 3ed2 c63d
000003b0: b7fe 80bd 3773 43bc 4a72 9fbd 637b b83b
000003c0: 6960 273e 0d79 e3bd e2ad 90bd 3ef9 a6bd
000003d0: c2ad 88bd d7cd 17be 87b5 cabc 161b 2bbe
000003e0: 280d 003e 1be3 0e3e 250c 3dbe 9af5 9c3d
000003f0: 34f3 cebd 1ac2 a33d f928 2e3e 0f1b 203e

sequence.3.bias f4 [16]
-0.1441705 -0.019307403 0.08995218 -0.13293196 0.03685432 0.010537704 -0.040042374 0.04709701
0.19125222 0.055481136 0.16471843 -0.11655441 -0.03425635 0.0059814653 0.046772365 0.0075438092
00000000: 6ea1 13be 8f2a 9ebc d938 b83d 511f 08be
00000010: 8ef4 163d 56a6 2c3c 7903 24bd cbe8 403d
00000020: 9fd7 433e 3040 633d f3ab 283e 14b4 eebd
00000030: 6350 0cbd 2b00 c43b 6194 3f3d 0f32 f73b

sequence.4.weight f4 [16]
0.9841002 1.0058572 1.0011978 1.0758778 0.9639056 0.91705143 1.01468 1.025445
1.0427024 0.97198474 0.9267393 1.0250022 1.0079877 1.0099928 0.9887918 1.0007204
00000000: feed 7b3f eebf 803f 4027 803f 5db6 893f
00000010: 84c2 763f e2c3 6a3f 09e1 813f c841 833f
00000020: 4677 853f fed3 783f c93e 6d3f 4633 833f
00000030: be05 813f 7247 813f 7621 7d3f 9b17 803f

sequence.4.bias f4 [16]
-0.10821063 0.04473546 0.017373893 0.064301744 0.025238296 0.044509973 -0.081798 0.066339895
0.012832125 0.012804235 -0.0751429 0.06577564 -0.038261726 -0.031365424 0.0025790005 0.044732228
00000000: 899d ddbd 883c 373d b253 8e3c a2b0 833d
00000010: 8bc0 ce3c 1750 363d b685 a7bd 36dd 873d
00000020: d53d 523c dbc8 513c 85e4 99bd 61b5 863d
00000030: 54b8 1cbd 0879 00bd 7304 293b 2439 373d

sequence.4.running_mean f4 [16]
0.7343679 -0.13781856 -0.11923703 -0.58362633 -0.1531652 0.0427549 0.028059544 -0.16853417
0.46564585 0.058435522 0.09953006 -0.6188514 0.18919837 -0.025943078 0.5359846 -0.02344777
00000000: 89ff 3b3f 4f20 0dbe 8b32 f4bd 8968 15bf
00000010: 57d7 1cbe c31f 2f3d 21dd e53c 3994 2cbe
00000020: 2269 ee3e 165a 6f3d 6bd6 cb3d 0c6d 1ebf
00000030: 38bd 413e 9486 d4bc 4936 093f 8a15 c0bc

sequence.4.running_var f4 [16]
0.23341717 0.08907953 0.2926538 0.26199985 0.2173629 0.083796464 0.1661509 0.096309625
0.09387956 0.4123087 0.07125746 0.16243282 0.15611586 0.1103123 0.17069124 0.23739445
00000000: e904 6f3e 546f b63d b8d6 953e d824 863e
00000010: 6194 5e3e 7b9d ab3d 7623 2a3e fb3d c53d
00000020: ed43 c03d 201a d33e 6eef 913d ca54 263e
00000030: d6dc 1f3e 6aeb e13d afc9 2e3e 8817 733e

sequence.6.weight f4 [32, 16, 2, 2]
0.11302624 0.08919218 -0.107112944 0.021486584 -0.18327148 -0.17064072 -0.18650529 0.017077962
0.1277985 0.08810362 -0.022262318 0.057769883 0.034592908 0.055211153 -0.026128555 -0.106544375
0.06527423 -0.15179054 0.07607941 -0.08644449 0.07346142 0.04671853 -0.020989353 -0.13986956
-0.074333 -0.07814387 -0.06273084 -0.07771664 0.0048180264 0.11962406 0.047200996 -0.017226584
0.10591273 0.11730289 0.047643047 0.018628744 -0.06778433 0.099571705 0.069708526 0.10872138
0.08395279 0.10503697 -0.14170763 0.0441008 0.063610494 -0.06343609 -0.059137203 -0.115903765
0.07632321 0.13988799 0.14832604 -0.036112074 -0.05165348 0.06703564 -0.037327506 0.032166827
0.071745425 -0.02849445 0.07573084 0.018898506 -0.05813987 0.022878159 0.13738775 -0.052730456
0.0070396783 -0.12753002 0.17099033 0.09613562 -0.05536819 -0.064768374 0.015163524 0.030665781
0.028089859 -0.06936786 0.09944557 0.034039024 -0.046992637 -0.031595197 0.17958118 0.11697777
0.11943624 -0.06800301 -0.14152901 -0.0121132275 -0.15682827 0.07943714 0.025582891 0.069878
-0.14467715 -0.14049636 -0.023388078 0.09969913 -0.06293274 -0.021419784 0.14324717 0.099995546
-0.20255819 -0.14886823 0.00585584 -0.037034795 -0.12858821 0.077451535 0.018004628 -0.0069201984
0.028801067 0.050639857 0.097889714 -0.044708047 0.054393515 0.11980555 -0.02185201 -0.00016342032
-0.036651608 0.057343774 -3.6937716e-05 0.14969197 0.01041961 -0.047071625 -0.09240754 0.03039893
-0.0086459955 0.076067865 0.10384268 -0.0061739 -0.11420601 -0.02362599 0.02587303 -0.0967836
0.10286337 0.15385133 -0.002659904 -0.031036459 -0.04472552 -0.12085554 -0.038352333 0.06562435
0.1496019 0.07680425 0.09305419 -0.055769585 0.0032728992 0.11137498 -0.1182671 0.06315589
-0.009673613 0.12261632 0.11694988 0.05874345 0.06376764 -0.008492821 -0.032621253 0.01710721
-0.06210404 -0.03818146 0.07803094 -0.036806103 0.041897938 0.042484622 -0.043437127 0.026487809
0.057246033 0.07646585 0.08861546 0.16201332 -0.10861679 -0.07564787 -0.09655982 -0.020230418
0.04084876 -0.05986856 -0.038582765 -0.0015370891 -0.17432263 -0.02824518 0.04433077 0.13595721
-0.03440433 0.05435393 -0.086309224 -0.12235505 -0.089540705 0.13444346 -0.011745432 -0.022421168
-0.09222635 -0.042289786 0.07234638 0.010361007 -0.051364467 -0.038375262 -0.052893206 0.09595837
-0.136063 0.096951514 -0.0747288 -0.046759248 -0.0128599685 0.007045787 0.0759835 0.023632124
-0.13927603 -0.10835373 -0.046478387 -0.13919386 -0.034967087 -0.07504432 0.17449124 -0.0062525454
0.036980387 0.047923546 0.16850159 0.05282017 -0.11174661 0.050697014 0.06898921 -0.062031254
-0.11128248 0.06125738 0.12151806 -0.0011634267 -0.052602183 0.095073745 0.022805914 0.13624693
0.04951612 -0.039499063 0.15348065 -0.030843202 0.059736725 -0.085570775 -0.0719365 0.046400413
0.09775284 0.12102152 0.06987435 -0.014995109 -0.0011320156 -0.013716785 0.041341003 -0.099567845
-0.061424322 -0.121427394 0.113565214 -0.050914902 -0.05578119 -0.13077801 0.07152268 0.015585611
-0.010955684 -0.057260826 -0.036936894 0.0029851845 0.0055149393 0.07094481 -0.17561166 0.04529475
00000000: 4d7a e73d 64aa b63d 085e dbbd a204 b03c
00000010: 85ab 3bbe 71bc 2ebe 3efb 3ebe 15e7 8b3c
00000020: 9cdd 023e ac6f b43d 775f b6bc 1da0 6c3d
00000030: 4bb1 0d3d 1725 623d 8d0b d6bc f033 dabd
00000040: 7fae 853d fb6e 1bbe 86cf 9b3d cf09 b1bd
00000050: f172 963d ee5b 3f3d ddf1 abbc f739 0fbe
00000060: e63b 98bd e509 a0bd 0779 80bd e729 9fbd
00000070: 89e0 9d3b 76fd f43d d555 413d c41e 8dbc
00000080: c6e8 d83d 7f3c f03d 5b25 433d 4f9b 983c
00000090: 83d2 8abd 40ec cb3d 58c3 8e3d 51a9 de3d
000000a0: 71ef ab3d 9f1d d73d ce1b 11be 0aa3 343d
000000b0: 3846 823d c8ea 81bd da39 72bd f45e edbd
000000c0: 584f 9c3d cc3e 0f3e c8e2 173e 41ea 13bd
000000d0: 9992 53bd fb49 893d bae4 18bd 5dc1 033d
000000e0: 44ef 923d 316d e9bc c518 9b3d 0ad1 9a3c
000000f0: 1324 6ebd fa6a bb3c 60af 0c3e e4fb 57bd
00000100: 1aad e63b 3b97 02be 1718 2f3e c0e2 c43d
00000110: c1c9 62bd 48a5 84bd 6e70 783c ce36 fb3c
00000120: b41c e63c bd10 8ebd 1eaa cb3d 816c 0b3d
00000130: 5a7b 40bd f769 01bd 21e4 373e 0b92 ef3d
00000140: fd9a f43d 2945 8bbd fbec 10be 8f76 46bc
00000150: 9797 20be f0af a23d 3693 d13c 321c 8f3d
00000160: 3f26 14be 47de 0fbe 5b98 bfbc 0f2f cc3d
00000170: e1e2 80bd 8b78 afbc 63af 123e 77ca cc3d
00000180: 6a6b 4fbe ea70 18be 59e2 bf3b ccb1 17bd
00000190: a1ac 03be e99e 9e3d 717e 933c d5c2 e2bb
000001a0: 37f0 eb3c bd6b 4f3d 677a c83d c91f 37bd
000001b0: bccb 5e3d 9d5c f53d fd02 b3bc cf5b 2bb9
000001c0: ff1f 16bd 4ee1 6a3d 92ed 1ab8 da48 193e
000001d0: 03b7 2a3c 2dce 40bd 2a40 bdbd 2d07 f93c
000001e0: efa7 0dbc 78c9 9b3d 79ab d43d 6d4e cabb
000001f0: d7e4 e9bd 4b8b c1bc adf3 d33c 7b36 c6bd
00000200: 08aa d23d 348b 1d3e c951 2ebb 2c40 febc
00000210: 1b32 37bd 1c83 f7bd 5617 1dbd 0f66 863d
00000220: 3e31 193e 8c4b 9d3d 3293 be3d a66e 64bd
00000230: 237e 563b 9118 e43d 0536 f2bd e057 813d
00000240: 137e 1ebc 441e fb3d 6b83 ef3d f99c 703d
00000250: 9c98 823d 7925 0bbc dd9d 05bd 6b24 8c3c
00000260: ce60 7ebd 2a64 1cbd afce 9f3d ffc1 16bd
00000270: 2c9d 2b3d 5b04 2e3d 21eb 31bd f6fc d83c
00000280: d17a 6a3d 219a 9c3d 067c b53d d2e6 253e
00000290: 7b72 debd 45ed 9abd 28c1 c5bd 43ba a5bc
000002a0: 0851 273d bc38 75bd f608 1ebd 2778 c9ba
000002b0: a281 32be 7062 e7bc 2e94 353d 5e38 0b3e
000002c0: 8eeb 0cbd 3aa2 5e3d e4c2 b0bd 4995 fabd
000002d0: 1e61 b7bd 8cab 093e ea6f 40bc 99ac b7bc
000002e0: 2be1 bcbd 0e38 2dbd 572a 943d 37c1 293c
000002f0: 8c63 52bd 612f 1dbd 8ca6 58bd d285 c43d
00000300: 1954 0bbe 848e c63d 6a0b 99bd a086 3fbd
00000310: 9eb2 52bc 58e0 e63b 3d9d 9b3d 2898 c13c
00000320: 609e 0ebe 8fe8 ddbd 1f60 3ebd d688 0ebe
00000330: a639 0fbd d6b0 99bd d5ad 323e 27e2 ccbb
00000340: bf78 173d 7b4b 443d ae8b 2c3e f659 583d
00000350: 68db e4bd aca7 4f3d 374a 8d3d 7c14 7ebd
00000360: 12e8 e3bd 05e9 7a3d 76de f83d 1f7e 98ba
00000370: 6375 57bd 06b6 c23d 78d3 ba3c 5184 0b3e
00000380: 6ad1 4a3d c5c9 21bd 082a 1d3e e2aa fcbc
00000390: 7fae 743d bb3f afbd 7253 93bd 5c0e 3e3d
000003a0: a432 c83d 21da f73d 491a 8f3d 0cae 75bc
000003b0: 2460 94ba 5ebc 60bc 2f55 293d 3aea cbbd
000003c0: 1298 7bbd edae f8bd e194 e83d 258c 50bd
000003d0: d17a 64bd acea 05be 7c7a 923d ca5a 7f3c
000003e0: 787f 33bc 548a 6abd 244b 17bd 16a3 433b
000003f0: aab6 b43b 834b 913d 8bd3 33be fd86 393d

sequence.6.bias f4 [32]
0.02075382 0.03622284 -0.10932388 0.1032964 -0.011640225 0.07463962 0.09897949 0.026159206
-0.14156462 0.10055904 0.016152885 0.06539317 0.030097447 -0.03865522 0.038258113 -0.089020774
-0.09792148 -0.12651688 0.1373813 -0.0784996 -0.0976334 0.018424714 0.11001471 0.07282793
-0.015687631 0.052154545 0.05887783 -0.10839791 0.03863449 -0.024321819 -0.05399876 -0.010432607
00000000: ea03 aa3c 675e 143d 33e5 dfbd 108d d33d
00000010: a4b6 3ebc a8dc 983d c2b5 ca3d d54b d63c
00000020: 51f6 10be e6f1 cd3d 0e53 843c dbec 853d
00000030: ec8e f63c f054 1ebd 8ab4 1c3d 8650 b6bd
00000040: 0f8b c8bd a48d 01be afad 0c3e 66c4 a0bd
00000050: 05f4 c7bd 6def 963c 644f e13d cf26 953d
00000060: 5983 80bc 01a0 553d e129 713d b9ff ddbd
00000070: 333f 1e3d 8d3e c7bc ce2d 5dbd 86ed 2abc

sequence.7.weight f4 [32]
1.0184598 1.0153366 0.95706713 1.0399222 1.0079123 0.9328924 0.99257404 0.9984269
1.0093708 1.0204637 1.0188466 0.9782863 1.0492595 0.9990545 1.0387876 1.0051767
1.016142 0.9829628 1.0405287 1.0126898 0.96918905 0.95995873 1.0186095 1.0476738
1.0197395 1.0143224 0.9321012 1.0234826 0.9727971 1.0042552 0.99324054 0.977968
00000000: e45c 823f 8df6 813f 5a02 753f 2c1c 853f
00000010: 4503 813f 09d2 6e3f 5519 7e3f e898 7f3f
00000020: 1033 813f 8e9e 823f 9169 823f f970 7a3f
00000030: 234e 863f 09c2 7f3f fef6 843f a1a9 803f
00000040: f110 823f 73a3 7b3f 0b30 853f d29f 813f
00000050: c61c 783f dbbf 753f cc61 823f 2d1a 863f
00000060: d386 823f 51d5 813f 2f9e 6e3f 7a01 833f
00000070: 3b09 793f 6f8b 803f 0345 7e3f 1c5c 7a3f

sequence.7.bias f4 [32]
0.04907933 -0.019559419 -0.066412516 -0.044652205 0.053469997 -0.09287545 -0.045984328 -0.027157849
-0.091717795 0.035167348 0.026307054 -0.0059912833 -0.07815484 -0.08226033 0.026662186 0.00411555
-0.050734185 -0.07862993 0.031915404 0.056445103 0.020338267 -0.015502168 -0.13752288 0.09079685
0.046811465 -0.039782032 -0.137026 -0.012229242 -0.026442124 -0.07161023 -0.020152502 -0.056446943
00000000: 6807 493d 133b a0bc 4903 88bd 3be5 36bd
00000010: 5b03 5b3d 7c35 bebd 105a 3cbd 237a debc
00000020: 8ad6 bbbd a30b 103d e481 d73c 8752 c4bb
00000030: a50f a0bd 1b78 a8bd a86a da3c bcdb 863b
00000040: a6ce 4fbd bb08 a1bd bab9 023d fb32 673d
00000050: 709c a63c cefc 7dbc ccd2 0cbe b3f3 b93d
00000060: 61bd 3f3d 7cf2 22bd 8b50 0cbe 295d 48bc
00000070: 279d d8bc 62a8 92bd dc16 a5bc e934 67bd

sequence.7.running_mean f4 [32]
0.20499457 0.1041054 0.08123963 0.08823865 0.32722816 0.5766038 -0.3151397 -0.04327019
-0.117844425 0.0142755285 0.25162312 -0.014151208 -0.058728397 -0.23773652 -0.3339886 -0.57326865
-0.29749224 -0.305581 0.12143491 -0.39762396 -0.22540994 -0.18684173 0.15298733 -0.31696314
-0.02589581 -0.1342183 0.24413154 0.09387562 -0.11533727 0.037741594 -0.021536708 0.48728532
00000000: 19ea 513e 3635 d53d f760 a63d 77b6 b43d
00000010: 738a a73e 4e9c 133f fe59 a1be 153c 31bd
00000020: 6b58 f1bd e8e3 693c bfd4 803e 78da 67bc
00000030: 308d 70bd 3471 73be 8e00 abbe bcc1 12bf
00000040: e750 98be 1d75 9cbe deb2 f83d 5e95 cbbe
00000050: ddd1 66be 7053 3fbe b6a8 1c3e fe48 a2be
00000060: 7323 d4bc 8670 09be 9efd 793e dc41 c03d
00000070: f235 ecbd ee96 1a3d c06d b0bc 767d f93e

sequence.7.running_var f4 [32]
0.18510847 0.18778758 0.09083098 0.11778437 0.16523676 0.22549951 0.17883503 0.14049265
0.1699707 0.12135842 0.23592985 0.1951303 0.073458806 0.16516303 0.25578314 0.17012697
0.2685853 0.1234723 0.17151445 0.17907721 0.16713944 0.26006627 0.12032545 0.19642144
0.1673135 0.2530986 0.25155362 0.12383398 0.2261744 0.110200755 0.13710552 0.3754768
00000000: 138d 3d3e 634b 403e 9805 ba3d ef38 f13d
00000010: d333 293e 58e9 663e 8820 373e 4edd 0f3e
00000020: cd0c 2e3e c38a f83d 9897 713e 3dd0 473e
00000030: 9271 963d 7f20 293e 02f6 823e c435 2e3e
00000040: 0384 893e 0cdf fc3d 7ca1 2f3e 0460 373e
00000050: 9a26 2b3e 6827 853e 316d f63d b422 493e
00000060: 3b54 2b3e 2496 813e a3cb 803e ab9c fd3d
00000070: 439a 673e efb0 e13d 6465 0c3e 7f3e c03e

sequence.9.weight f4 [64, 32, 2, 2]
0.030348057 -0.018941311 -0.12573457 -0.082299754 -0.051235843 0.06533695 0.06959577 0.077713266
0.054683175 0.047010027 -0.13946551 -0.1473341 0.024451317 0.070689626 0.023999585 0.03633939
-0.14936328 -0.10178379 -0.024758885 -0.11034988 0.049110502 0.117327385 0.046028454 0.041342262
-0.022138365 -0.088002004 -0.09035781 0.068906166 -0.086189225 0.043458346 0.020992573 0.055700477
-0.09436149 0.07150249 -0.030165998 -0.14423366 0.059509307 0.012222467 0.0357155 0.057343278
0.012654829 -0.04494359 -0.07702553 0.013853295 -0.06962046 -0.17702107 0.039395463 -0.022639014
0.015480329 0.043476883 0.009074859 0.10349303 0.03133108 0.080748424 -0.07008948 0.062593825
-0.0063207163 0.034209564 0.01894408 0.08617818 0.0005024127 0.06200365 -0.08650885 -0.03486703
-0.03873001 -0.03924559 -0.09860192 -0.029785078 -0.13653624 -0.07121534 0.06966156 -0.041540343
0.006904433 -0.10080281 -0.014255836 -0.09171473 0.050756775 0.053114068 0.009027327 0.044818085
0.007214347 -0.07108517 -0.095536746 0.11433603 0.035990313 0.0058705583 -0.0064721387 -0.023086801
-0.030296622 0.12490106 -0.07702811 -0.036577318 0.049708676 0.016830713 -0.01713846 0.077119745
0.039311003 0.10752878 0.06276022 0.092651255 -0.13553523 -0.14482997 0.082940556 0.028510993
-0.13017032 -0.036651053 -0.025518956 -0.08354216 -0.040537942 -0.03218498 -0.025413616 0.004917135
-0.0659097 -0.042397775 -0.04797344 -0.117818035 0.07393896 0.05752658 0.076695904 0.026204122
-0.059811696 -0.13445866 0.052530874 -0.083047755 -0.08934231 -0.016871648 -0.0006502502 0.046966076
-0.053463064 0.002803886 -0.09860759 0.006534389 0.117505014 0.09465698 0.085484006 -0.023975613
-0.1086113 -0.07761883 -0.18836164 -0.014076497 0.13223112 -0.023227219 -0.01762717 -0.05176963
-0.0017626504 0.073433034 -0.09799846 -0.054977745 -0.078030385 0.0460795 -0.06025157 -0.06958066
-0.009814447 0.038527686 0.11694765 0.09393409 -0.13355401 -0.014970349 0.02165496 0.04894409
-0.0006775899 -0.087129705 -0.029023603 -0.027533125 -0.067015134 -0.029681385 -0.1034349 -0.08776062
0.09330822 0.014590821 -0.038436703 -0.00926227 -0.025988914 -0.09709202 0.08444008 -0.009204975
-0.033302 0.14660348 0.02805885 0.013597322 -0.09747234 -0.049184423 0.015929747 0.013964046
-0.022053199 0.02897453 -0.09555234 -0.04560366 -0.032428674 0.031854134 0.00049810985 0.0045504845
0.0015844939 0.11200337 -0.051404588 -0.07160846 -0.016288484 -0.03625228 -0.13912182 -0.031901643
0.025520364 0.11697934 -0.024438223 -0.034400526 0.025257876 -0.049427915 0.0876301 -0.05282074
0.047839753 0.07313921 0.059980754 -0.10171275 -0.021108495 0.02917112 0.051709164 -0.064511664
-0.062064275 0.035265163 0.05052194 -0.028991437 -0.013543107 -0.03314305 0.022515561 0.10009114
0.08868458 0.036105916 -0.058490895 -0.090122774 -0.08133716 0.033819795 -0.13036972 0.02490102
0.016296549 0.03450136 0.08704965 -0.09048359 -0.071967505 0.0855923 0.061283424 0.04146585
-0.06494722 0.060941737 0.092215784 -0.0019056377 0.007884751 0.014633954 -0.04949265 0.008926858
0.086896345 0.04286207 0.07718473 0.1048305 -0.033280533 0.055074245 0.033189 0.062051836
00000000: 7d9c f83c cf2a 9bbc 90c0 00be c68c a8bd
00000010: addc 51bd 61cf 853d 3a88 8e3d 2228 9f3d
00000020: 77fb 5f3d 968d 403d 0cd0 0ebe c0de 16be
00000030: 214e c83c b9c5 903d c79a c43c 9dd8 143d
00000040: b0f2 18be 0574 d0bd 25d3 cabc 1eff e1bd
00000050: 1828 493d 5749 f03d 5588 3c3d 8156 293d
00000060: 845b b5bc 653a b4bd 840d b9bd ad1e 8d3d
00000070: fa83 b0bd 6101 323d 9ef8 ab3c 2f26 643d
00000080: 9940 c1bd e66f 923d af1e f7bc fdb1 13be
00000090: 08c0 733d be40 483c 6b4a 123d c9e0 6a3d
000000a0: 3356 4f3c c516 38bd 90bf 9dbd eef8 623c
000000b0: 2c95 8ebd 0345 35be 235d 213d 7475 b9bc
000000c0: 35a1 7d3c d114 323d b8ae 143c 27f4 d33d
000000d0: 0555 003d 6e5f a53d 138b 8fbd 3131 803d
000000e0: 031e cfbb 541f 0c3d 9e30 9b3c 307e b03d
000000f0: 58b4 033a 8af7 7d3d 8d2b b1bd bbd0 0ebd
00000100: 5ca3 1ebd fcbf 20bd ceef c9bd d6ff f3bc
00000110: 28d0 0bbe 59d9 91bd b8aa 8e3d 3526 2abd
00000120: 953e e23b b471 cebd 4f91 69bc efd4 bbbd
00000130: 56e6 4f3d 238e 593d 5be7 133c 2b93 373d
00000140: 5466 ec3b 1a95 91bd c5a8 c3bd 0229 ea3d
00000150: 946a 133d d05d c03b 3c14 d4bb 8820 bdbc
00000160: 9f30 f8bc 20cc ff3d eac0 9dbd 19d2 15bd
00000170: 539b 4b3d 90e0 893c f565 8cbc f5f0 9d3d
00000180: 9304 213d 0d38 dc3d 6e88 803d f1bf bd3d
00000190: bfc9 0abe 4f4e 14be bddc a93d e38f e93c
000001a0: 5e4b 05be 6a1f 16bd 210d d1bc 2718 abbd
000001b0: 1d0b 26bd 66d4 03bd 3730 d0bc eb1f a13b
000001c0: aafb 86bd 4aa9 2dbd cc7f 44bd 954a f1bd
000001d0: 4f6d 973d fea0 6b3d be12 9d3d 07aa d63c
000001e0: 1cfd 74bd 88af 09be 9d2a 573d f114 aabd
000001f0: 1af9 b6bd 6936 8abc 8d75 2aba 805f 403d
00000200: 16fc 5abd 67c1 373b c7f2 c9bd 6e1e d63b
00000210: 78a6 f03d 85db c13d 3d12 af3d 8168 c4bc
00000220: 9a6f debd 9ff6 9ebd e0e1 40be 1ca1 66bc
00000230: 9867 073e 0247 bebc db66 90bc 640c 54bd
00000240: bc08 e7ba 0f64 963d 6bb3 c8bd 5830 61bd
00000250: 65ce 9fbd dcbd 3c3d 5aca 76bd 4e80 8ebd
00000260: c6cc 20bc 35cf 1d3d 4082 ef3d 8460 c03d
00000270: 62c2 08be 3246 75bc be65 b13c 9979 483d
00000280: 4aa0 31ba 0f71 b2bd e8c2 edbc 268d e1bc
00000290: 3b3f 89bd 6026 f3bc add5 d3bd d7bb b3bd
000002a0: 6118 bf3d 570e 6f3c ce6f 1dbd c7c0 17bc
000002b0: b4e6 d4bc 2ed8 c6bd ecee ac3d 77d0 16bc
000002c0: ae67 08bd 391f 163e acdb e53c 4dc7 5e3c
000002d0: 949f c7bd 9b75 49bd 1a7f 823c 74c9 643c
000002e0: e9a8 b4bc fe5b ed3c f2b0 c3bd e7ca 3abd
000002f0: eed3 04bd 7b79 023d 9693 023a 3b1c 953b
00000300: cbae cf3a 0662 e53d 9e8d 52bd 75a7 92bd
00000310: 6d6f 85bc 457d 14bd f375 0ebe 4cab 02bd
00000320: 1510 d13c dd92 ef3d ab32 c8bc 91e7 0cbd
00000330: 9be9 ce3c ed74 4abd 6977 b33d 8f5a 58bd
00000340: 9ef3 433d 03ca 953d 61ae 753d c64e d0bd
00000350: b9eb acbc 46f8 ee3c fdcc 533d b11e 84bd
00000360: 1c37 7ebd 3472 103d 18f0 4e3d 737f edbc
00000370: e8e3 5dbc 02c1 07bd 8e72 b83c 95fc cc3d
00000380: 43a0 b53d cce3 133d 2694 6fbd 4a92 b8bd
00000390: 1994 a6bd a086 0a3d a47f 05be 39fd cb3c
000003a0: 5780 853c 4c51 0d3d 1647 b23d 764f b9bd
000003b0: b363 93bd 044b af3d 5404 7b3d 18d8 293d
000003c0: 0c03 85bd 0b9e 793d a1db bc3d 97c6 f9ba
000003d0: 0b2f 013c 40c3 6f3c ceb8 4abd f541 123c
000003e0: b6f6 b13d 2390 2f3d 0713 9e3d 60b1 d63d
000003f0: 2b51 08bd 8895 613d 30f1 073d 112a 7e3d

sequence.9.bias f4 [64]
0.05461678 -0.06973878 -0.0054696635 0.027070679 0.04072291 7.681582e-05 0.084839895 -0.022657536
-0.02277364 0.06837091 0.05430967 -0.013186717 0.030300783 0.07614806 0.04695139 0.05686109
-0.021863975 -0.0093821045 0.07717163 -0.03753792 0.056019098 -0.0876027 -0.07305596 0.050034814
-0.03227474 0.05250772 0.008008267 -0.013324347 -0.026310008 -0.011122085 0.060786273 0.082589544
0.08062525 -0.0068156254 0.04486156 0.058749694 0.056260433 0.010169807 0.07955875 -0.03146985
0.024540186 -0.0065403217 0.047965184 0.03573871 -0.0010453949 0.0092786485 -0.05228766 0.03158072
-0.05027336 0.043604612 -0.076127075 -0.04347224 0.010362859 -0.064629205 0.0072310343 -0.066787064
0.05763456 -0.009504936 -0.026450764 -0.0134906 -0.043469276 0.041828126 -0.04077995 -0.065625355
00000000: d8b5 5f3d 35d3 8ebd dd3a b3bb 54c3 dd3c
00000010: 11cd 263d 2e18 a138 8ac0 ad3d 4c9c b9bc
00000020: c98f babc 0c06 8c3d d173 5e3d 1a0d 58bc
00000030: 5939 f83c 84f3 9b3d 1a50 403d 2de7 683d
00000040: 141c b3bc 66b7 19bc 290c 9e3d 5dc1 19bd
00000050: 4874 653d 0b69 b3bd 5d9e 95bd 4ef1 4c3d
00000060: 8532 04bd 5612 573d 1b35 033c 5d4e 5abc
00000070: 1688 d7bc 6839 36bc 07fb 783d b524 a93d
00000080: da1e a53d 9c55 dfbb c1c0 373d 85a3 703d
00000090: 5771 663d 439f 263c b3ef a23d 88e6 00bd
000000a0: 8008 c93c 3250 d6bb 2477 443d c162 123d
000000b0: a205 89ba 7905 183c 962b 56bd c95a 013d
000000c0: 70eb 4dbd c09a 323d 83e8 9bbd f30f 32bd
000000d0: fbc8 293c 515c 84bd 50f2 ec3b a8c7 88bd
000000e0: 3712 6c3d 97ba 1bbc 46af d8bc ad07 5dbc
000000f0: d70c 32bd f853 2b3d e008 27bd 9666 86bd

sequence.10.weight f4 [64]
1.0501722 1.0434766 0.95865107 1.0180337 0.9756675 1.0016968 1.0104951 0.97672004
0.99836946 0.99955714 0.930521 0.9688383 1.0215515 1.0416567 1.0123792 0.956031
0.99506235 0.95479333 0.9526288 1.0169861 0.9414556 1.087607 0.9402679 1.0031263
1.0094947 1.0553066 0.9719559 0.9360547 0.95484656 0.9677171 0.9885661 0.97690845
1.0312029 0.9750406 1.1015297 0.9819823 0.99899054 1.049067 0.9634668 1.02706
0.9868422 1.009784 1.0613701 1.0360786 0.98692995 0.9989368 1.0401689 1.0060526
1.0184147 0.9611985 1.0293962 0.9295841 0.97683793 0.98754144 1.0141301 1.0043317
0.9716727 1.0555056 1.02644 1.0180472 1.023132 1.0036083 0.9894015 0.94078565
00000000: 0b6c 863f a490 853f 286a 753f ee4e 823f
00000010: 58c5 793f 9a37 803f e757 813f 530a 7a3f
00000020: 2495 7f3f fae2 7f3f a036 6e3f c905 783f
00000030: 33c2 823f 0255 853f a495 813f 73be 743f
00000040: 68bc 7e3f 566d 743f 7bdf 733f 9a2c 823f
00000050: 3c03 713f b536 8b3f 66b5 703f 7166 803f
00000060: 1f37 813f 4914 873f 1ad2 783f 48a1 6f3f
00000070: d370 743f 4fbc 773f ab12 7d3f ac16 7a3f
00000080: 75fe 833f 439c 793f edfe 8c3f 3163 7b3f
00000090: d8bd 7f3f d447 863f c3a5 763f b476 833f
000000a0: b1a1 7c3f 9a40 813f fada 873f 399e 843f
000000b0: 71a7 7c3f 52ba 7f3f 4124 853f 55c6 803f
000000c0: 6a5b 823f 1b11 763f 41c3 833f 39f9 6d3f
000000d0: 0d12 7a3f 84cf 7c3f 04cf 813f f18d 803f
000000e0: 8bbf 783f cf1a 873f 6362 833f 5f4f 823f
000000f0: fdf5 823f 3d76 803f 6b49 7d3f 54d7 703f

sequence.10.bias f4 [64]
-0.07524591 -0.14186148 -0.07884314 -0.094095334 -0.13380589 -0.092872284 -0.0751863 0.082789935
-0.093006015 -0.16350862 -0.09577638 0.016122699 -0.15237713 -0.085118495 -0.073047556 -0.058478177
0.012355245 -0.14820917 -0.1379554 -0.10590959 -0.14209493 -0.0837002 -0.08878975 -0.042052373
-0.026065197 -0.08868716 -0.05647734 -0.09627487 -0.03771152 -0.061399568 -0.051267695 -0.09782194
-0.09360091 -0.103979684 -0.07715712 -0.14089067 -0.0726929 -0.09622087 -0.18061988 -0.15443645
-0.08316275 -0.08951918 -0.039164625 -0.0986914 -0.11300401 -0.06733701 -0.047847178 -0.16754945
-0.08611166 -0.051168766 -0.047781978 -0.09110872 -0.10509712 -0.11480573 -0.018391967 -0.07941156
-0.17900537 -0.053243894 -0.081275955 -0.071259774 -0.15161654 -0.03617458 -0.1325942 -0.099099085
00000000: 871a 9abd 2344 11be 8378 a1bd 0eb5 c0bd
00000010: 6904 09be d333 bebd 46fb 99bd c58d a93d
00000020: f079 bebd ce6e 27be 6826 c4bd c013 843c
00000030: c008 1cbe 9b52 aebd f599 95bd d086 6fbd
00000040: a76d 4a3c 25c4 17be 2e44 0dbe 21e7 d8bd
00000050: 5581 11be 036b abbd 67d7 b5bd 1c3f 2cbd
00000060: ae86 d5bc 9da1 b5bd c954 67bd c22b c5bd
00000070: 6577 1abd 1d7e 7bbd 13fe 51bd df56 c8bd
00000080: d5b1 bfbd 4df3 d4bd 8d04 9ebd a545 10be
00000090: 04e0 94bd 730f c5bd 6bf4 38be 9724 1ebe
000000a0: 3b51 aabd d555 b7bd 166b 20bd b71e cabd
000000b0: a56e e7bd fce7 89bd 67fb 43bd 1592 2bbe
000000c0: 4f5b b0bd 5796 51bd 09b7 43bd 3597 babd
000000d0: 293d d7bd 441f ebbd c0aa 96bc 87a2 a2bd
000000e0: 2f4d 37be 4516 5abd 0274 a6bd a5f0 91bd
000000f0: 5e41 1bbe cc2b 14bd c6c6 07be 76f4 cabd

sequence.10.running_mean f4 [64]
-0.31339714 -0.12711652 -0.16825958 -0.018562593 -0.06951329 -0.6893341 -0.6018221 0.17833638
-0.09707798 0.38435984 0.43362027 -0.38281354 -0.10274033 -0.3375448 -0.19927023 -0.018723417
-0.33062834 0.55161136 -0.40028667 0.0014855195 0.29734784 -0.3107309 0.04099861 -0.45672777
-0.08063136 -0.7873694 -0.03664774 -0.0267912 0.029516585 -0.37124538 0.14436264 0.15527987
-0.309398 -0.42360887 -0.6658096 0.04012403 0.5040818 0.14609002 0.118327715 0.10713569
-0.6008862 -0.34472495 -0.7374066 0.5571245 0.32855365 0.25361353 -0.5326657 0.015172637
-0.3524467 -0.58354527 -0.47457 -0.29974428 0.09581505 0.19234562 0.07154364 -0.2226343
-0.6935163 -1.0997695 -0.35449693 -0.45181155 -0.26784185 0.36355296 -0.3409194 0.33695927
00000000: 9775 a0be d52a 02be 3d4c 2cbe 9410 98bc
00000010: fc5c 8ebd 3378 30bf 0311 1abf d09d 363e
00000020: d2d0 c6bd d0ca c43e 7a03 de3e 2300 c4be
00000030: 8669 d2bd acd2 acbe 7f0d 4cbe da61 99bc
00000040: 1e48 a9be 6736 0d3f 60f2 ccbe c3b5 c23a
00000050: fa3d 983e 1f18 9fbe 29ee 273d 39d8 e9be
00000060: 0e22 a5bd 0a91 49bf f11b 16bd 3879 dbbc
00000070: c4cc f13c e013 bebe cdd3 133e b001 1f3e
00000080: 6a69 9ebe 43e3 d8be 7f72 2abf 1859 243d
00000090: 810b 013f 9f98 153e cd55 f23d f569 db3d
000000a0: aed3 19bf ca7f b0be aec6 3cbf b69f 0e3f
000000b0: 2f38 a83e a2d9 813e c85c 08bf a796 783c
000000c0: e573 b4be 3963 15bf d7fa f2be 1578 99be
000000d0: ae3a c43d 40f6 443e 7985 923d 3ffa 63be
000000e0: 498a 31bf 3fc5 8cbf 9f80 b5be d853 e7be
000000f0: 9122 89be 9d23 ba3e fd8c aebe ed85 ac3e

sequence.10.running_var f4 [64]
0.31358913 0.17410852 0.19439834 0.22104864 0.14098291 0.3184725 0.41309464 0.23886178
0.13143767 0.17236972 0.20392539 0.3473308 0.26611087 0.2406912 0.18833573 0.20571151
0.2181131 0.22299936 0.19718148 0.20502926 0.31933308 0.17363828 0.19501767 0.2102449
0.22812879 0.3491977 0.22833614 0.16421394 0.2743106 0.2316348 0.18894465 0.2612174
0.31482035 0.22662635 0.4392654 0.23766564 0.2561744 0.2150668 0.29665673 0.15399356
0.17746827 0.20286892 0.38403365 0.24403833 0.1514404 0.19650733 0.2724886 0.36544812
0.26515377 0.32871452 0.28329659 0.19990298 0.21252306 0.23686187 0.18345605 0.22572407
0.16737029 0.31139997 0.18334311 0.25099033 0.19497445 0.1614479 0.1890938 0.22756237
00000000: c18e a03e 8149 323e 5c10 473e 935a 623e
00000010: d35d 103e d40e a33e 2481 d33e 2f98 743e
00000020: 9997 063e b081 303e d1d1 503e 58d5 b13e
00000030: af3f 883e c177 763e 15db 403e 0aa6 523e
00000040: 0a59 5f3e f259 643e f1e9 493e 31f3 513e
00000050: a07f a33e 3cce 313e b6b2 473e 704a 573e
00000060: 989a 693e 0aca b23e f3d0 693e b327 283e
00000070: 7072 8c3e ac31 6d3e b57a 413e 49be 853e
00000080: 2230 a13e bd10 683e 65e7 e03e 9f5e 733e
00000090: 4a29 833e 793a 5c3e 64e3 973e 7db0 1d3e
000000a0: 3eba 353e dfbc 4f3e 0fa0 c43e 2fe5 793e
000000b0: 3113 1b3e 3839 493e a083 8b3e 041c bb3e
000000c0: 3cc2 873e 454d a83e 400c 913e 5eb3 4c3e
000000d0: a59f 593e eb8b 723e e7db 3b3e 3624 673e
000000e0: 1e63 2b3e d16f 9f3e 4cbe 3b3e ce81 803e
000000f0: 62a7 473e 9952 253e cea1 413e 1c06 693e

sequence.12.weight f4 [32, 64, 2, 2]
-0.013219172 0.04459546 0.04310585 -0.020394472 0.10137017 0.09515346 -0.15606667 -0.030867094
-0.023663979 -0.05760342 -0.06303845 -0.049291033 0.02904573 0.039161146 0.033725716 0.15711343
-0.07420659 0.010372436 -0.0043869345 -0.039712384 -0.0009919038 -0.026727416 -0.008597362 -0.0070730518
-0.05301386 0.052315913 -0.00041438508 -0.06633571 0.024202988 -0.029367898 -0.050675333 0.05797885
0.045313433 0.09039722 -0.017519107 -0.06929732 -0.12293905 -0.102845594 -0.002909299 -0.064801045
-0.03814269 -0.064583845 0.03282985 0.040327284 -0.0069511393 -0.016223865 0.02699331 0.068719715
-0.03326427 -0.004555943 0.07059786 -0.004652973 0.09572309 0.003010808 -0.008441906 0.11228929
-0.008080717 0.03186599 0.07525014 0.028619742 0.013058685 0.08631085 -0.036622263 0.0045397305
-0.00018122901 -0.0790857 -0.02132516 0.012373309 -0.00049318525 0.01634745 0.012462671 0.032681808
-0.06019025 -0.07911479 -0.13468683 -0.10835561 0.04860377 -0.025648808 0.10379022 -0.024561359
-0.07762449 -0.061356205 -0.063867696 -0.10539772 -0.08043167 -0.07640959 -0.025732968 -0.107569985
-0.020673325 0.023394754 0.061387785 0.02164026 -0.083516724 -0.055369277 0.011447548 0.057654418
-0.049751375 -0.009307374 0.0451656 -0.027961038 0.057049215 0.0845487 0.014635004 -0.0024963354
-0.005025929 -0.044992868 -0.079360485 -0.0079066055 -0.020772072 -0.026564112 -0.003396734 0.006161431
-0.030270007 -0.07185579 -0.024636013 0.016354922 -0.038871855 -0.11148871 -0.019905917 -0.015103869
0.037219077 -0.012934364 0.056827214 -0.014529346 -0.009676841 0.007328425 0.01956572 0.0032646211
-0.051811356 0.05980753 0.00588236 -0.001004372 0.028613374 0.008697542 0.025678715 0.00704016
0.025660492 -0.016076151 -0.021966528 0.056508403 0.02814063 -0.016531695 0.11384467 0.011787373
-0.014688167 -0.11274822 -0.018066535 0.031692237 -0.06337997 -0.05041455 0.04714727 0.05955203
0.035118215 0.036484703 0.057689365 0.13260248 -0.08610513 -0.121758625 -0.0018630003 -0.11953796
0.01956086 -0.058250748 0.025508575 -0.059965294 -0.02567516 0.039104696 -0.122248106 -0.14820419
0.010703779 0.026280528 -0.064709 -0.057673845 0.0059236013 -0.024572052 -0.028179618 -0.030086497
-0.076359116 0.017295865 0.0035164647 0.03913022 0.016958486 0.09988148 0.06003632 0.03331405
0.021562185 0.012665878 0.07089172 -0.082281366 -0.05519641 -0.00046214598 0.028213982 0.050546423
0.03828727 0.029764516 0.13974887 0.10779845 0.018180253 -0.015815621 -0.020462358 -0.05340914
-0.060344916 0.016042514 0.1057516 0.11312554 -0.084698826 -0.054499935 0.010671169 0.02302101
-0.03008196 -0.028670603 -0.05576123 -0.055833768 -0.0035270872 -0.006232099 0.0355787 0.021243855
0.022765877 0.0010762232 0.057192426 -0.017620753 -0.047176406 -0.005595566 -0.03871075 0.010892076
-0.04451244 -0.011889998 -0.018447481 -0.00856777 0.03420296 0.05003525 -0.060179345 -0.005005905
0.07632962 0.07993141 0.049098086 0.04841952 -0.057453442 0.0015058445 0.08684082 0.016089357
-0.06850095 -0.022433078 -0.011811069 -0.07943998 0.061546687 0.054908212 0.019116305 -0.046921674
0.007267318 -0.043720856 0.04546427 -0.054112382 -0.06898765 0.006140396 0.021555435 0.07255842
00000000: 3a95 58bc bba9 363d c38f 303d 4f12 a7bc
00000010: 2a9b cf3d d1df c23d f1cf 1fbe fddc fcbc
00000020: f6da c1bc 90f1 6bbd 4e1a 81bd 65e5 49bd
00000030: 50f1 ed3c 7067 203d fa23 0a3d 58e2 203e
00000040: a0f9 97bd 26f1 293c 46c0 8fbb 74a9 22bd
00000050: c502 82ba 74f3 dabc f3db 0cbc 0fc5 e7bb
00000060: 1025 59bd 3649 563d d341 d9b9 04db 87bd
00000070: 5845 c63c f294 f0bc f090 4fbd 3b7b 6d3d
00000080: 949a 393d 2d22 b93d 3b84 8fbc c1eb 8dbd
00000090: 78c7 fbbd b6a0 d2bd f0a9 3ebb 69b6 84bd
000000a0: 823b 1cbd 8944 84bd 9878 063d 392e 253d
000000b0: 62c6 e3bb e9e7 84bc 1321 dd3c ecbc 8c3d
000000c0: 1d40 08bd 054a 95bb 9c95 903d f777 98bb
000000d0: 780a c43d fa50 453b ec4f 0abc edf7 e53d
000000e0: fc64 04bc ea85 023d bf1c 9a3d f373 ea3c
000000f0: 18f4 553c bec3 b03d 3a01 16bd 05c2 943b
00000100: 4b08 3eb9 aff7 a1bd 1ab2 aebc 6bb9 4a3c
00000110: 1a49 01ba 16eb 853c 3b30 4c3c 5cdd 053d
00000120: 0d8a 76bd ef06 a2bd 58eb 09be 8ce9 ddbd
00000130: bf14 473d 731d d2bc f88f d43d e734 c9bc
00000140: 97f9 9ebd a550 7bbd 11cd 82bd c3da d7bd
00000150: 5cb9 a4bd a27c 9cbd f2cd d2bc a74d dcbd
00000160: 1b5b a9bc 5ba6 bf3c c271 7b3d ea46 b13c
00000170: d10a abbd e5ca 62bd 7f8e 3b3c 0a27 6c3d
00000180: 19c8 4bbd f57d 18bc 90ff 383d 8c0e e5bc
00000190: 70ac 693d de27 ad3d a8c7 6f3c 8f99 23bb
000001a0: 8cb0 a4bb 714a 38bd c087 a2bd b58a 01bc
000001b0: 312a aabc fb9c d9bc bd9b 5ebb d4e5 c93b
000001c0: cef8 f7bc 2129 93bd 77d1 c9bc c2fa 853c
000001d0: 1838 1fbd 3154 e4bd bc11 a3bc 3876 77bc
000001e0: 0873 183d a8ea 53bc a7c3 683d 7e0c 6ebc
000001f0: 9d8b 1ebc 4923 f03b 4a48 a03c 41f3 553b
00000200: 2538 54bd bef8 743d d0c0 c03b 22a5 83ba
00000210: 9866 ea3c 2380 0e3c 2b5c d23c 24b1 e63b
00000220: f435 d23c 22b2 83bc 26f3 b3bc 5b75 673d
00000230: 2e87 e63c 7a6d 87bc 6527 e93d d31f 413c
00000240: a3a6 70bc 8ae8 e6bd 4500 94bc b8cf 013d
00000250: 5ccd 81bd 7d7f 4ebd 7f1d 413d d4ec 733d
00000260: 1ed8 0f3d fc70 153d af4b 6c3d f2c8 073e
00000270: e357 b0bd 965c f9bd eb2f f4ba 51d0 f4bd
00000280: 193e a03c 5698 6ebd 5cf7 d03c 2b9e 75bd
00000290: b754 d2bc 3f2c 203d 375d fabd d7c2 17be
000002a0: e75e 2f3c 434a d73c 2786 84bd 693b 6cbd
000002b0: c51a c23b 544b c9bc f1d8 e6bc f577 f6bc
000002c0: 2b62 9cbd 0fb0 8d3c 7d74 663b 0247 203d
000002d0: 86ec 8a3c a98e cc3d a5e8 753d 5074 083d
000002e0: 2ea3 b03c 8b84 4f3c ae2f 913d 2283 a8bd
000002f0: a115 62bd 2f4c f2b9 0221 e73c c409 4f3d
00000300: 1dd3 1c3d b7d4 f33c 541a 0f3e 6fc5 dc3d
00000310: c1ee 943c c38f 81bc ada0 a7bc 8bc3 5abd
00000320: 3b2c 77bd 976b 833c 4b94 d83d 5dae e73d
00000330: 9476 adbd 533b 5fbd 20d6 2e3c 8f96 bc3c
00000340: 716e f6bc 9dde eabc e365 64bd f3b1 64bd
00000350: b426 67bb a336 ccbb f9ba 113d 9807 ae3c
00000360: 817f ba3c 0f10 8d3a 9b42 6a3d 6659 90bc
00000370: 0c3c 41bd 025b b7bb 2a8f 1ebd ae74 323c
00000380: ad52 36bd 44ce 42bc 2c1f 97bc d55f 0cbc
00000390: 6718 0c3d c3f1 4c3d 9e7e 76bd 9308 a4bb
000003a0: b452 9c3d 14b3 a33d 131b 493d 8c53 463d
000003b0: 4d54 6bbd c25f c53a 9ad9 b13d d4cd 833c
000003c0: 3a4a 8cbd 93c5 b7bc 3783 41bc 6eb1 a2bd
000003d0: 6118 7c3d 6fe7 603d cc99 9c3c f130 40bd
000003e0: af22 ee3b a414 33bd be38 3a3d f2a4 5dbd
000003f0: 6649 8dbd 6035 c93b 0695 b03c 8299 943d

sequence.12.bias f4 [32]
0.003755106 -0.037521094 0.06200233 0.05364525 0.0501969 -0.047517564 -0.06398227 0.047082312
0.01576183 0.004822326 -0.0014536263 0.05101279 -0.016645845 0.030257275 -0.029205719 0.03837863
0.05793148 -0.0154724065 -0.0061218734 -0.028136361 0.03175245 -0.02314384 -0.055529643 -0.023849323
-0.036834788 -0.047475837 0.008341833 -0.005849021 -0.029300626 0.005598984 0.049239527 -0.036376692
00000000: 3918 763b b8af 19bd 28f6 7d3d 1fbb 5b3d
00000010: 449b 4d3d c7a1 42bd 2309 83bd 62d9 403d
00000020: f41e 813c 9a04 9e3b 9b87 beba caf2 503d
00000030: de5c 88bc 1bde f73c d540 efbc e932 1d3d
00000040: 8f49 6d3d fa7f 7dbc ff99 c8bb 3a7e e6bc
00000050: db0e 023d 2698 bdbc 0d73 63bd a85f c3bc
00000060: 13e0 16bd 0676 42bd 2fac 083c 25a9 bfbb
00000070: de07 f0bc af77 b73b 63af 493d baff 14bd

sequence.13.weight f4 [32]
1.0274047 1.0184467 0.96044034 1.0608368 1.0375911 0.99321467 0.9812534 1.0114884
1.0212626 0.9853191 0.9719776 0.9166304 1.1101058 1.0026653 1.017017 0.93877184
0.9445393 0.95950186 0.9974853 0.9969998 0.9658362 1.0285933 1.0413995 0.96242756
1.0111907 0.97783995 0.93850315 0.9573096 0.99172324 1.0487539 0.970961 0.9491686
00000000: ff81 833f 765c 823f 6bdf 753f 80c9 873f
00000010: c9cf 843f 5143 7e3f 6c33 7b3f 7478 813f
00000020: bcb8 823f df3d 7c3f 86d3 783f 4aa8 6a3f
00000030: f217 8e3f 5657 803f 9d2d 823f 5a53 703f
00000040: 54cd 713f eaa1 753f 325b 7f3f 613b 7f3f
00000050: 0b41 773f f2a8 833f 944c 853f a761 763f
00000060: b26e 813f b853 7a3f be41 703f 3e12 753f
00000070: 93e1 7d3f 913d 863f e690 783f b7fc 723f

sequence.13.bias f4 [32]
-0.05620964 -0.016029382 -0.12267436 -0.12250519 -0.08651523 -0.119009815 -0.064634815 -0.041782618
-0.17485222 -0.078608565 -0.09022329 -0.08520747 -0.009848739 -0.09944402 -0.089127645 -0.10260502
-0.08950652 -0.08288917 -0.20839465 -0.031065272 -0.13418807 -0.043218445 -0.0946297 -0.08030995
3.0329627e-06 -0.075974904 -0.035664164 -0.15581857 -0.049768586 -0.04999676 -0.14423968 -0.05063042
00000000: 143c 66bd 0d50 83bc b23c fbbd 00e4 fabd
00000010: e62e b1bd 6bbb f3bd 425f 84bd 4024 2bbd
00000020: 760c 33be 87fd a0bd fdc6 b8bd 4181 aebd
00000030: 9b5c 21bc 4ea9 cbbd 8e88 b6bd 9522 d2bd
00000040: 324f b7bd ccc1 a9bd 6865 55be 997c febc
00000050: 9968 09be d305 31bd 37cd c1bd 8b79 a4bd
00000060: e789 4b36 bb98 9bbd 9614 12bd e78e 1fbe
00000070: 25da 4bbd 67c9 4cbd 91b3 13be d861 4fbd

sequence.13.running_mean f4 [32]
-0.3231951 -0.53094316 -1.060318 -0.38532695 -0.39806843 -0.6065617 -0.8580401 -0.5897461
-0.47064802 -1.4593382 -0.53818625 -0.9301968 -0.42921188 -1.351035 -0.08681634 -0.122096784
-0.010073558 -0.8991193 -0.4444761 -1.329422 -0.0022728534 -0.21069194 0.50702363 -0.813317
-0.66162246 -0.21106735 -0.78699255 -0.13184041 -0.671795 -0.6952264 0.050817423 -0.39441532
00000000: d479 a5be e4eb 07bf 80b8 87bf 9349 c5be
00000010: a0cf cbbe a147 1bbf 84a8 5bbf 9af9 16bf
00000020: c7f8 f0be 98cb babf 93c6 09bf 6121 6ebf
00000030: a9c1 dbbe b7ee acbf c4cc b1bd e10d fabd
00000040: 910b 25bc af2c 66bf 5f92 e3be 802a aabf
00000050: 27f4 14bb a1bf 57be 4dcc 013f 8b35 50bf
00000060: 1760 29bf 0a22 58be 5878 49bf 2c01 07be
00000070: c2fa 2bbf 5bfa 31bf ee25 503d cef0 c9be

sequence.13.running_var f4 [32]
0.7679297 0.26918286 0.38548055 0.19462277 0.24024099 0.3232065 0.33121312 0.36661762
0.25297904 0.26162922 0.39308733 0.56745934 0.5011976 0.39449087 0.5511093 0.36200383
0.35447848 0.46677703 0.39878383 0.66699964 0.48770446 0.29368618 0.36481136 0.29273903
0.29088464 0.28786483 0.37064803 0.2840844 0.42840326 0.3797864 0.2921494 0.41848186
00000000: 0a97 443f 56d2 893e b55d c53e 314b 473e
00000010: bc01 763e 537b a53e c494 a93e 4eb5 bb3e
00000020: 7886 813e 44f4 853e be42 c93e 0445 113f
00000030: 7c4e 003f b5fa c93e 8015 0d3f 9158 b93e
00000040: 347e b53e 66fd ee3e 652d cc3e 7dc0 2a3f
00000050: 66b4 f93e 095e 963e 8ec8 ba3e e4e1 953e
00000060: d5ee 943e 0563 933e 94c5 bd3e 8373 913e
00000070: ac57 db3e 5d73 c23e 9b94 953e 4143 d63e
